FR_model_lite.tflite (tflite, 981416 bytes, 24 tensors)

arith.constant f4 [32]
-0.004359071 -0.01811895 -0.015246927 0.03997881 0.021446861 -0.029854827 -0.0148201315 -0.044873603
-0.041818537 -0.030293299 -0.024429576 -0.029482162 -0.022325097 -0.038313236 -0.0053100064 -0.0225743
0.033527575 -0.0154374745 0.012676142 -0.08896741 0.0281142 -0.053761184 -0.065261334 0.017474813
-0.06551697 -0.04236271 0.034372017 -0.02339471 0.015885629 -0.10205418 0.04403601 -0.042532295
00000000: 8ad6 8ebb 316e 94bc 3fce 79bc d2c0 233d
00000010: 54b1 af3c 1c92 f4bc 23d0 72bc 62cd 37bd
00000020: ea49 2bbd a729 f8bc 8920 c8bc 9384 f1bc
00000030: 1fe3 b6bc 57ee 1cbd 90ff adbb bded b8bc
00000040: 3654 093d 76ed 7cbc 98af 4f3c 8c34 b6bd
00000050: c04f e63c b034 5cbd bca7 85bd 5727 8f3c
00000060: c32d 86bd 8584 2dbd acc9 0c3d 43a6 bfbc
00000070: 9422 823c c801 d1bd 1a5f 343d 5836 2ebd

arith.constant1 f4 [96]
0.0094916 -0.026149815 -0.0059442176 -0.027501212 -0.015519489 0.015817542 -0.01375411 -0.052932262
-0.035201453 -0.05645252 -0.029545907 -0.023038939 -0.027353033 -0.045710254 -0.043445773 0.025048908
-0.03946641 -0.021779472 -0.059913196 0.0080545675 -0.0033775712 -0.015057205 -0.03083868 0.0004929792
0.009886832 -0.01219767 -0.07730175 -0.0016185845 -0.035019238 -0.045889158 -0.02345901 0.002051954
-0.0073053506 -0.056065578 0.012149986 -0.033734117 -0.034106 -0.029365534 -0.040225603 -0.02999134
-0.05049267 -0.056600213 -0.04238491 -0.033133797 -0.06772654 -0.028453186 -0.019772157 -0.009226251
-0.0058104764 -0.042882252 0.013036888 -0.07471204 -0.016408313 -0.01538351 -0.00047666917 0.009204368
0.015558675 -0.029317955 -0.0023532384 -0.009703459 0.0037956047 0.029438075 0.019276315 -0.015414638
-0.05942066 -0.029587062 -0.0339411 0.005798977 -0.021646958 -0.027576355 -0.04744289 -0.03970188
-0.014286662 -0.03332719 -0.05345287 -0.008788615 -0.028452076 0.0009560024 -0.019742753 -0.07535722
-0.0027329442 -0.053638842 -0.028759273 -0.0706027 -0.04452153 -0.033042677 -0.046915084 -0.068294324
-0.03397542 -0.042576976 -0.034637146 -0.028532993 0.011050666 -0.04406887 -0.03392888 -0.015093803
00000000: a882 1b3c 2338 d6bc b6c7 c2bb 394a e1bc
00000010: 7445 7ebc ca93 813c eb58 61bc 80cf 58bd
00000020: 662f 10bd c23a 67bd 420a f2bc 28bc bcbc
00000030: 7813 e0bc ad3a 3bbd 32f4 31bd 5e33 cd3c
00000040: 88a7 21bd dd6a b2bc 8a67 75bd 4ef7 033c
00000050: 3e5a 5dbb 7fb2 76bc 66a1 fcbc 463b 013a
00000060: 61fc 213c bcd8 47bc 6150 9ebd af26 d4ba
00000070: 5570 0fbd 45f6 3bbd 1c2d c0bc 137a 063b
00000080: b961 efbb 05a5 65bd bc10 473c c92c 0abd
00000090: bcb2 0bbd fd8f f0bc 9ac3 24bd 66b0 f5bc
000000a0: 67d1 4ebd a0d5 67bd cd9b 2dbd 4eb7 07bd
000000b0: 36b4 8abd a816 e9bc 38f9 a1bc b429 17bc
000000c0: cf65 bebb 4da5 2fbd ac98 553c a002 99bd
000000d0: ba6a 86bc 1e0b 7cbc 74e9 f9b9 ebcd 163c
000000e0: d0e9 7e3c 352c f0bc ca38 1abb 42fb 1ebc
000000f0: aebf 783b 1e28 f13c 5de9 9d3c ae8d 7cbc
00000100: 1463 73bd 9160 f2bc d305 0bbd 5805 be3b
00000110: f654 b1bc cfe7 e1bc 7a53 42bd 709e 22bd
00000120: 9b12 6abc 1782 08bd 66f1 5abd 20fe 0fbc
00000130: 5414 e9bc 3c9c 7a3a 8ebb a1bc e354 9abd
00000140: 321b 33bb 67b4 5bbd 9198 ebbc 2698 90bd
00000150: 355c 36bd c257 07bd 082a 40bd e5dd 8bbd
00000160: cf29 0bbd 3265 2ebd aedf 0dbd 06be e9bc
00000170: da0d 353c 8f81 34bd 02f9 0abd 004c 77bc

arith.constant2 f4 [64]
-0.014123758 -0.046715423 -0.0071321013 -0.030687468 0.005708408 0.0042398404 -0.017057756 -0.019929335
-0.051983614 -0.028672142 -0.054622162 -0.0013447558 0.0036585142 -0.035157267 -0.024939392 -0.04772094
-0.05087191 -0.056352776 -0.031703703 0.010314534 0.012058564 -0.032056767 -0.01288388 -0.049842857
-0.052570544 -0.020055847 -0.072397105 -0.022884259 -0.021746764 -0.05448978 0.03611516 -0.040859856
-0.030170709 0.051376138 -0.031136118 -0.0073833317 -0.016897192 -0.021434007 -0.016036624 -0.03317779
-0.03336268 0.01456681 -0.0735955 -0.026588364 -0.013925017 -0.025995655 -0.053151205 -0.019053547
-0.012523812 -0.01643202 -0.07527874 -0.025142005 -0.015181321 -0.036433678 -0.019529095 0.0004912204
-0.01893148 -0.02961628 -0.019625895 -0.022196174 -0.00022044807 -0.012216524 -0.08038328 0.0070107663
00000000: 5667 67bc ac58 3fbd 67b4 e9bb 4964 fbbc
00000010: 990d bb3b 5cee 8a3b b5bc 8bbc d842 a3bc
00000020: c5ec 54bd d7e1 eabc 7dbb 5fbd 8442 b0ba
00000030: afc3 6f3b 1101 10bd b24d ccbc 0877 43bd
00000040: 105f 50bd 2bd2 66bd bedb 01bd 4bfe 283c
00000050: 4991 453c f54d 03bd e916 53bc 0628 4cbd
00000060: 3654 57bd 294c a4bc ef44 94bd c577 bbbc
00000070: 4526 b2bc ad30 5fbd 7ded 133d aa5c 27bd
00000080: 9028 f7bc c96f 523d 2c11 ffbc e0ef f1bb
00000090: fb6b 8abc 5f96 afbc 3d5f 83bc 6fe5 07bd
000000a0: 4ea7 08bd a1a9 6e3c 3db9 96bd d7cf d9bc
000000b0: c125 64bc d7f4 d4bc 14b5 59bd 2f16 9cbc
000000c0: ad30 4dbc 729c 86bc bd2b 9abd 9bf6 cdbc
000000d0: 13bb 78bc 7b3b 15bd 7bfb 9fbc 3ec5 003a
000000e0: 3116 9bbc d79d f2bc 7cc6 a0bc c0d4 b5bc
000000f0: 1428 67b9 d127 48bc fd9f a4bd 92ba e53b

arith.constant3 f4 [64]
0.01537532 -0.059478875 -0.061965488 -0.015785716 -0.018739358 -0.002957827 -0.049165606 -0.01976315
0.007297219 -0.04612247 -0.028172443 0.0055547957 -0.023381924 -0.0102593945 -0.046272904 -0.09166521
-0.014374298 0.01872352 -0.017774845 -0.08870538 0.020289715 -0.03608633 -0.012267234 -0.033695266
-0.012636983 -0.027510494 0.0056184586 -0.005654527 0.017224219 -0.0042705615 -0.022217872 -0.03445264
-0.012307224 -0.004594972 -0.015078799 0.006019161 -0.0081481775 -0.016191822 -0.0045448528 -0.038034048
-0.008432433 -0.048296966 -0.0034984539 -0.051859 0.011312622 -0.0060921805 -0.015165036 0.016284194
-0.022431381 0.00010514805 -0.050807685 -0.03215881 -0.043241784 -0.008555394 0.008047593 -0.051429726
-0.020794822 -0.049435496 -0.05969061 -0.0103555955 -0.008433307 -0.013655937 -0.02152356 -0.026440565
00000000: c4e8 7b3c 1fa0 73bd 86cf 7dbd 0c51 81bc
00000010: 4883 99bc 1ad8 41bb e061 49bd 54e6 a1bc
00000020: 821d ef3b eaea 3cbd e5c9 e6bc 0105 b63b
00000030: 738b bfbc 0517 28bc a888 3dbd f8ba bbbd
00000040: 2d82 6bbc 1162 993c 8d9c 91bc 2bab b5bd
00000050: 9e36 a63c 42cf 13bd 82fc 48bc 0c04 0abd
00000060: 590b 4fbc b05d e1bc 0c1b b83b 9c49 b9bb
00000070: ce19 8d3c 11f0 8bbb 4102 b6bc 361e 0dbd
00000080: 3da4 49bc 6b91 96bb 110d 77bc 623c c53b
00000090: ef7f 05bc b6a4 84bc fdec 94bb 97c9 1bbd
000000a0: 3028 0abc 0ad3 45bd 5146 65bb 1a6a 54bd
000000b0: 9358 393c eaa0 c7bb c576 78bc 6e66 853c
000000c0: 04c2 b7bc ee82 dc38 b81b 50bd f5b8 03bd
000000d0: 4c1e 31bd ec2b 0cbc 0dda 033c faa7 52bd
000000e0: e759 aabc e07c 4abd 247e 74bd 84aa 29bc
000000f0: da2b 0abc 27bd 5fbc 2d52 b0bc e299 d8bc

arith.constant4 f4 [32, 3, 3, 96]
-0.035744295 -0.08052702 -0.051632125 -0.00026515918 -0.0070235166 0.059784506 -0.047168605 -0.012692903
0.06582857 -0.0065741423 -0.07301204 -0.019958243 0.057694025 -0.016143752 -0.051696677 -0.027975371
-0.017163843 -0.0428135 -0.0159045 -0.02298835 -0.06920644 0.017455952 -0.051068302 -0.13192834
-0.093624815 -0.0062761307 -0.03893414 -0.019029738 0.048296176 -0.014489589 -0.06711246 -0.034586918
-0.03293077 -0.015624462 -0.0057250927 -0.096491866 0.041712478 -0.030958649 -0.029703004 0.08974348
0.021806475 -0.054749098 -0.065892786 -0.08808236 -0.091757044 -0.060130045 0.035419762 -0.043219343
-0.0029627832 -0.01876247 0.05940793 0.039986577 -0.08351193 -0.07277023 -0.003584817 -0.007588603
-0.08165575 -0.044582475 0.027457597 0.033784423 -0.036277328 0.05718819 -0.0625063 0.02073719
-0.005319547 0.03133949 0.030081954 0.0135011235 0.022358691 -0.03324281 0.01637025 -0.020692624
-0.080307744 0.025155284 0.028153481 0.038168874 0.102011316 0.022601398 0.08771793 -0.013046347
-0.0043873494 -0.04641683 -0.0077051637 -0.10731237 -0.054816853 0.0010830498 -0.0022340703 -0.025134016
0.026460603 0.06536054 -0.03462723 -0.0037107856 -0.075429775 0.06082335 0.053235613 0.0061212895
-0.057137016 0.06111982 -0.077969834 0.016583443 0.0608943 -0.0156687 -0.012519857 -0.030287515
0.0585103 0.025991626 0.023909768 -0.042730704 -0.021105694 0.027389036 0.036807247 0.0052414206
-0.025210742 0.03496816 -0.014006929 -0.015783347 0.01506514 -0.057670534 -0.023301337 -0.012684723
-0.10834881 -0.010778877 -0.06415312 0.009998582 0.002759235 -0.08874208 -0.0032677925 -0.039936125
0.023799088 0.038037412 -0.023519093 0.033232167 -0.05466492 0.023490634 -0.0038441655 -0.0021668435
-0.0012988377 0.06412325 0.05145444 0.046309493 -0.031069733 0.041346237 0.05382703 0.023796873
-0.036384925 0.03235649 0.047750868 0.07804667 0.022919642 -0.05450011 0.012101941 -0.03541492
-0.08543228 -0.04395276 -0.017358636 0.0033864933 0.049614932 0.036539584 -0.07738715 0.052853983
0.048056267 -0.050166115 -0.02587962 0.028223876 -0.058234632 0.02468644 -0.031345796 0.004031012
-0.015875503 -0.052605562 0.023269052 -0.036794316 0.015252823 0.02954105 -0.0058229445 0.10136791
0.054358296 -0.0039306637 -0.022179907 0.026508948 0.0284582 0.0015777915 -0.016850963 -0.0566305
0.023882978 0.08088732 0.08884123 -0.011865979 -0.014743155 0.006019683 -0.019353569 0.0056747124
-0.04958626 0.011139065 -0.038712963 0.03868864 0.06890047 -0.013580192 0.008012661 -0.059672788
-0.02453269 -0.03367827 0.028612228 -0.050645113 0.08529476 0.06441906 0.037345294 -0.002271995
-0.011297944 0.0007779541 -0.024519559 0.074112006 -0.029461896 0.0545998 -0.0034341344 0.058616232
-0.065337025 0.08435271 -0.020542398 0.00030045866 -0.012969727 -0.018139694 -0.038754564 -0.057199772
0.0015345205 -0.039287165 0.06879769 -0.055243965 0.03172562 0.019630855 -0.020620612 -0.00033671717
0.017111983 -0.012521856 -0.029535249 -0.027564572 0.09291563 -0.015135973 0.07302462 -0.011862433
0.083750255 0.054184992 0.066894956 0.090137005 -0.050962634 0.04835112 -0.06753887 -0.031054232
-0.019080156 -0.030532287 0.0631151 -0.043469265 -0.021306818 0.03506944 -0.049146492 -0.008897303
00000000: 9c68 12bd 5aeb a4bd 357c 53bd 1005 8bb9
00000010: 8725 e6bb 99e0 743d de33 41bd e5f5 4fbc
00000020: 21d1 863d e76b d7bb 5687 95bd 787f a3bc
00000030: 9250 6c3d e73f 84bc e5bf 53bd 9b2c e5bc
00000040: 309b 8cbc 355d 2fbd 274a 82bc 1052 bcbc
00000050: 1bbc 8dbd c9ff 8e3c ff2c 51bd 3918 07be
00000060: 5ebe bfbd 00a8 cdbb 6879 1fbd 41e4 9bbc
00000070: 36d2 453d be65 6dbc 4272 89bd 03ab 0dbd
00000080: 6ae2 06bd befd 7fbc 8f99 bbbb 879d c5bd
00000090: b4da 2a3d fe9c fdbc b753 f3bc 6ecb b73d
000000a0: 7ea3 b23c 9740 60bd ccf2 86bd 8664 b4bd
000000b0: 1eeb bbbd ec4a 76bd 5014 113d c406 31bd
000000c0: 412b 42bb c0b3 99bc bb55 733d f7c8 233d
000000d0: 4e08 abbd 8f08 95bd 40ef 6abb d1a9 f8bb
000000e0: 213b a7bd 1d9c 36bd c1ee e03c 8961 0a3d
000000f0: 8997 14bd 2a3e 6a3d 4e03 80bd 0ae1 a93c
00000100: 984f aebb d65d 003d 6e6e f63c d133 5d3c
00000110: 9329 b73c 9d29 08bd e71a 863c 9483 a9bc
00000120: 6378 a4bd 7412 ce3c 21a2 e63c f756 1c3d
00000130: 4feb d03d 9126 b93c 75a5 b33d 58c0 55bc
00000140: c1c3 8fbb 931f 3ebd 997b fcbb 96c6 dbbd
00000150: a387 60bd 1ff5 8d3a 7b69 12bb dae5 cdbc
00000160: e8c3 d83c bfdb 853d 48d5 0dbd a730 73bb
00000170: ed7a 9abd e821 793d 960d 5a3d 1995 c83b
00000180: 8108 6abd c758 7a3d a6ae 9fbd 00da 873c
00000190: 4d6c 793d a55b 80bc 1620 4dbc 861d f8bc
000001a0: 7fa8 6f3d 64ec d43c 6bde c33c 6406 2fbd
000001b0: d9e5 acbc f95e e03c 32c3 163d 39c0 ab3b
000001c0: c286 cebc c63a 0f3d 517d 65bc 144c 81bc
000001d0: c7d3 763c f037 6cbd 72e2 bebc 96d3 4fbc
000001e0: fbe5 ddbd e399 30bc b662 83bd 18d1 233c
000001f0: 48d4 343b 68be b5bd 7628 56bb 1094 23bd
00000200: 4ef6 c23c 1ecd 1b3d 1dab c0bc 741e 083d
00000210: 53e8 5fbd 6e6f c03c 65ee 7bbb 9a01 0ebb
00000220: c33d aaba 0d53 833d e4c1 523d 06af 3d3d
00000230: f485 febc ac5a 293d bb79 5c3d a9f1 c23c
00000240: 5c08 15bd 3d88 043d 6a96 433d efd6 9f3d
00000250: f9c1 bb3c 823b 5fbd 3847 463c 3c0f 11bd
00000260: 1ff7 aebd cf07 34bd b333 8ebc eeef 5d3b
00000270: 0739 4b3d 88aa 153d 277d 9ebd 6b7d 583d
00000280: a6d6 443d fc7a 4dbd 7f01 d4bc c235 e73c
00000290: 7087 6ebd 383b ca3c 7364 00bd 9416 843b
000002a0: 580d 82bc ee78 57bd bd9e be3c a3b5 16bd
000002b0: fae6 793c 1200 f23c 66ce bebb fb99 cf3d
000002c0: cea6 5e3d cccc 80bb a3b2 b5bc 4b29 d93c
000002d0: 2c21 e93c e6cd ce3a 080b 8abc 62f5 67bd
000002e0: 3ca6 c33c 40a8 a53d 64f2 b53d 8669 42bc
000002f0: 468d 71bc c340 c53b 608b 9ebc f0f2 b93b
00000300: f61a 4bbd a080 363c 7c91 1ebd fb77 1e3d
00000310: b11b 8d3d 747f 5ebc 8947 033c 746b 74bd
00000320: c8f8 c8bc 3af2 09bd 3164 ea3c 4071 4fbd
00000330: 05af ae3d 24ee 833d 61f7 183d c0e5 14bb
00000340: 031b 39bc 9eef 4b3a 3edd c8bc 09c8 973d
00000350: 135a f1bc 0aa4 5f3d 370f 61bb 9317 703d
00000360: 6bcf 85bd 1dc1 ac3d 8848 a8bc e186 9d39
00000370: fa7e 54bc b299 94bc 1bbd 1ebd 4f4a 6abd
00000380: f721 c93a 94eb 20bd cee5 8c3d 7f47 62bd
00000390: b9f2 013d e3d0 a03c 8fec a8bc 6a89 b0b9
000003a0: 6e2e 8c3c 7928 4dbc e8f3 f1bc 19cf e1bc
000003b0: 8d4a be3d dffc 77bc ef8d 953d a65a 42bc
000003c0: 4185 ab3d 15f1 5d3d 3900 893d c099 b83d
000003d0: 32be 50bd d30b 463d d251 8abd 7265 febc
000003e0: fd4d 9cbc d91e fabc 7d42 813d d40c 32bd
000003f0: a38b aebc f9a4 0f3d d54d 49bd fec5 11bc

arith.constant5 f4 [96, 3, 3, 64]
0.059950873 -0.021848025 0.0058410717 -0.06081849 -0.03740094 0.012839186 -0.043060184 0.03058621
0.05226359 -0.0151896365 -0.018860914 0.012927497 -0.05266023 -0.027954102 0.04408576 0.007762302
0.043376766 0.021207115 -0.05043836 0.007605938 0.027448205 -0.030004468 -0.00029479255 -0.06378788
-0.066987194 -0.06078234 0.035062343 0.011639577 0.009953884 -0.024973094 0.048564382 -0.014279064
-0.04084223 0.0037643453 -0.075019255 -0.0033984547 -0.0074419836 -0.049844634 0.014545017 -0.04621694
-0.006112883 0.0010923647 -0.002855601 -0.09956862 -0.02776891 -0.0011903899 -0.022332689 0.034850087
-0.009261853 -0.06275491 -0.064813115 0.036062244 0.050452106 0.007950151 0.012587497 -0.050245482
-0.08086795 0.015407522 0.060821515 0.0068538706 -0.06948681 0.017568717 -0.015925929 -0.047565203
-0.055014685 0.022513533 -0.0057009915 0.047161095 -0.009628173 -0.0047798487 0.05034556 0.05232066
0.022583654 0.022788115 0.026978862 0.04075351 0.0515694 -0.0059053833 -0.070520386 0.038248595
0.0287937 -0.030335782 -0.07965265 0.046021484 -0.06195047 0.07183852 -0.025460266 0.0015079321
-0.024869617 0.029207552 0.05443828 -0.07652115 0.06009157 0.007610436 0.021383945 0.037946437
-0.010478225 0.036573324 -0.030661445 -0.07785759 0.017606271 -0.012045895 0.011935025 -0.00407957
0.044245712 0.00598081 0.031214785 0.0010433124 -0.043406334 0.0344318 -0.058112625 -0.03602873
0.095930584 -0.06005792 -0.06318587 -0.030862398 0.039525833 0.019834483 -0.048179455 -0.031069297
0.022019697 0.077994816 0.041390944 0.033673238 0.0009854395 -0.057677053 -0.0031178812 -0.07325655
-0.0011643267 0.04851332 0.03200252 0.041142482 0.054693557 0.03435089 -0.0393561 -0.0050769844
-0.008978473 0.036405414 -0.085353844 0.07907401 0.004046326 0.025448328 -0.07174708 0.030491
-0.040372368 0.024486333 -0.004037359 0.013549837 -0.086731955 0.07484919 0.02437418 0.05163579
-0.09513577 -0.006644499 -0.0117741665 0.0141081875 0.020850537 -0.013214505 -0.02815238 0.07227069
-0.03910445 0.04800436 -0.013763879 0.007159784 0.007688613 0.012595491 -0.021016479 0.005295474
0.0071464893 -0.059009425 -0.005677701 0.0061986265 -0.04080898 -0.018245567 0.0237013 -0.077967934
0.036046017 0.040335335 0.005368162 0.031183336 -0.002380238 -0.0012253699 0.038558245 0.012619451
-0.015559603 0.052217282 -0.069123976 -0.04296071 0.031265162 -0.0333537 0.018156629 0.0901196
-0.004589033 0.026987756 -0.055638142 0.056571588 0.03176868 0.026448542 -0.07449892 -0.031883594
-0.038155142 0.014611045 -0.026367003 -0.060849525 0.008441416 0.0021948102 -0.009346808 -0.017137032
-0.02189674 0.0121087 -0.011222609 0.04543618 0.00073078985 -0.017302522 -0.0032536718 -0.025321413
-0.052364416 -0.0020644038 0.015972437 0.04688778 0.0034103678 -0.061451353 -0.0014861826 0.03475827
0.00034743283 -0.06938014 -0.004938235 -0.0001836301 -0.033129662 -0.061600644 -0.043574728 -0.09831091
0.0044181026 0.019099003 0.045776058 0.027162043 0.08565011 -0.0674439 0.03089916 -0.06522403
0.053556286 -0.08060454 -0.019172499 -0.011576635 -0.04612428 -0.008738378 0.0027000508 -0.017679702
0.032619145 0.0003765902 -0.065234676 -0.06279178 -0.059705228 -0.007074426 -0.041533254 0.042209137
00000000: 0c8f 753d a1fa b2bc 7666 bf3b cf1c 79bd
00000010: ba31 19bd 735b 523c e05f 30bd ee8f fa3c
00000020: 5912 563d f4dd 78bc 3482 9abc dacd 533c
00000030: 41b2 57bd 0000 e5bc 4593 343d e95a fe3b
00000040: d6ab 313d 8bba ad3c 7498 4ebd 3b3b f93b
00000050: 0fdb e03c eecb f5bc 638e 9ab9 38a3 82bd
00000060: 9530 89bd e7f6 78bd 889d 0f3d edb3 3e3c
00000070: 9e15 233c 6094 ccbc 72eb 463d bcf2 69bc
00000080: 2f4a 27bd 3cb3 763b b2a3 99bd 9cb8 5ebb
00000090: e2db f3bb e329 4cbd 394e 6e3c f94d 3dbd
000000a0: 944e c8bb ad2d 8f3a 0925 3bbb a2ea cbbd
000000b0: a07b e3bc db06 9cba 0bf3 b6bc f7be 0e3d
000000c0: 07bf 17bc a585 80bd bdbc 84bd 01b6 133d
000000d0: dea6 4e3d 5a41 023c ca3b 4e3c 35ce 4dbd
000000e0: 199e a5bd d56f 7c3c fb1f 793d 6f96 e03b
000000f0: 1a4f 8ebd 45ec 8f3c 1877 82bc bbd3 42bd
00000100: 1457 61bd 4d6e b83c 62cf babb fe2b 413d
00000110: 7cbf 1dbc 47a0 9cbb 2537 4e3d 304e 563d
00000120: 5b01 b93c 24ae ba3c c602 dd3c 27ed 263d
00000130: 6f3a 533d f281 c1bb fe6c 90bd 8faa 1c3d
00000140: c4e0 eb3c bf82 f8bc ee20 a3bd 0681 3c3d
00000150: c7bf 7dbd 1320 933d 0c92 d0bc cea5 c53a
00000160: 5ebb cbbc ad44 ef3c adfa 5e3d 1fb7 9cbd
00000170: 9422 763d f760 f93b 622d af3c b96d 1b3d
00000180: dcac 2bbc e9cd 153d b62d fbbc cd73 9fbd
00000190: 073b 903c 255c 45bc 208b 433c eaad 85bb
000001a0: fe3a 353d acfa c33b 26b6 ff3c c1bf 883a
000001b0: d7ca 31bd 5c08 0d3d 8107 6ebd dd92 13bd
000001c0: 4177 c43d 4bff 75bd 9867 81bd 24d3 fcbc
000001d0: d7e5 213d ed7b a23c d257 45bd 0a85 febc
000001e0: a762 b43c bfbb 9f3d 8d89 293d f3ec 093d
000001f0: dd29 813a c63e 6cbd 5e55 4cbb 8807 96bd
00000200: 529c 98ba e7b5 463d 1315 033d 0585 283d
00000210: 5a06 603d 85b3 0c3d dd33 21bd d55c a6bb
00000220: 721a 13bc d81d 153d ffcd aebd 8ef1 a13d
00000230: 0b97 843b 0379 d03c 22f0 92bd 43c8 f93c
00000240: 7f5d 25bd 9097 c83c d24b 84bb 2300 5e3c
00000250: 86a0 b1bd 884a 993d 5cac c73c 0d80 533d
00000260: 8bd6 c2bd 19ba d9bb 6fe8 40bc 0726 673c
00000270: bfce aa3c a781 58bc d29f e6bc a802 943d
00000280: fd2b 20bd 38a0 443d e581 61bc 9f9c ea3b
00000290: c3f0 fb3b 515d 4e3c c02a acbc a885 ad3b
000002a0: 192d ea3b deb3 71bd 020c babb d91d cb3b
000002b0: 5127 27bd ba77 95bc 3b29 c23c a7ad 9fbd
000002c0: fda4 133d aa36 253d 68e7 af3b 3274 ff3c
000002d0: c4fd 1bbb 979c a0ba 40ef 1d3d d0c1 4e3c
000002e0: b5ed 7ebc cae1 553d df90 8dbd 92f7 2fbd
000002f0: e60f 003d e49d 08bd 36bd 943c a090 b83d
00000300: 995f 96bb 6d15 dd3c d2e4 63bd 9cb7 673d
00000310: e01f 023d 9daa d83c e492 98bd 5f98 02bd
00000320: 9148 1cbd 2a63 6f3c 9dff d7bc 5a3d 79bd
00000330: dd4d 0a3c ced6 0f3b 5b23 19bc f662 8cbc
00000340: cb60 b3bc 9263 463c 09df 37bc 4a1b 3a3d
00000350: 7a92 3f3a 05be 8dbc 8e3b 55bb da6e cfbc
00000360: 127c 56bd f34a 07bb a1d8 823c 670d 403d
00000370: 7a80 5f3b 6ab4 7bbd 03cc c2ba b05e 0e3d
00000380: a527 b639 2d17 8ebd ebd0 a1bb d48c 40b9
00000390: f8b2 07bd f550 7cbd 6a7b 32bd 3b57 c9bd
000003a0: bbc5 903b 8375 9c3c ad7f 3b3d ef82 de3c
000003b0: 5369 af3d 0720 8abd 3c20 fd3c 2d94 85bd
000003c0: d65d 5b3d fe13 a5bd a50f 9dbc edab 3dbc
000003d0: d0ec 3cbd 6a2b 0fbc 56f3 303b 06d5 90bc
000003e0: a79b 053d 1571 c539 c299 85bd fa98 80bd
000003f0: 788d 74bd 96d0 e7bb c61e 2abd 7de3 2c3d

arith.constant6 f4 [64, 3, 3, 64]
0.002518392 -0.054502804 0.022744581 0.056241382 -0.027904661 -0.0041531 0.026933674 0.06900684
0.026461313 -0.001950507 -0.059495956 0.04394094 -0.01138416 -0.03931563 -0.00461162 -0.06414734
-0.045087952 0.009939127 -0.023329219 0.027778761 0.043394882 -0.034972228 0.027892863 -0.01594535
0.029360857 0.0433963 0.025968786 -0.006261894 0.0010629848 0.0034990148 0.04587403 0.024650464
-0.0368646 0.0025137246 -0.027049497 0.03796346 0.10316982 0.041432865 0.029433016 -0.04157157
-0.015015709 0.0017388758 -0.025918974 0.012264711 0.07062511 0.008969987 0.0009067543 -0.042564347
0.04510084 -0.03736016 0.0048826574 -0.05913718 0.0051392526 -0.019911751 0.01231497 0.0031579293
-0.054901022 0.03876248 -0.019110378 0.038110014 -0.01645029 -0.008315547 -0.070967 -0.072369866
0.07273859 -0.09714644 0.008883003 0.0116154235 -0.036237046 -0.09568704 0.041081827 0.03299113
0.0014872773 -0.052671626 -0.078104645 -0.035554007 -0.057917077 -0.06304268 -0.07678828 0.013858093
0.011092226 -0.07650511 -0.060269073 -0.06421695 0.059095073 -0.042469203 0.05367037 0.07035051
-0.03471656 0.013685066 0.017898431 0.035387214 0.041799217 -0.054133162 -0.00964125 0.044371966
-0.08859721 0.024131969 0.05223317 0.013309667 0.031323094 -0.034036737 -0.07793406 0.07948586
-0.045859665 0.00061009906 -0.030232169 -0.05974579 0.08302935 0.065912165 0.038620774 -0.00052404834
0.042952724 -0.035365544 0.0794063 -0.052708708 -0.06787074 -0.009320111 0.03317155 0.023497608
-0.016697787 0.0015508552 0.026310714 0.047621097 -0.0012802453 0.002826226 -0.0286799 -0.04930717
-0.03388841 -0.053941194 -0.0023709512 -0.08359067 -0.05316756 0.02358331 0.0297827 0.05352571
9.516769e-05 0.00018735384 -0.006854985 0.023210362 0.049188294 -0.00029207492 -0.011319332 0.064949796
-0.038076464 0.03246984 -0.07518893 -0.0680389 -0.0626977 -0.016717626 -0.03277803 -0.032389294
0.045780707 0.057933625 -0.081892386 0.04694329 -0.017230425 -0.023218384 0.0443814 0.008130103
-0.018125283 -0.048346274 0.07288841 -0.07604447 -0.024944622 0.044170506 0.056830212 0.020887924
-0.030881794 0.0051101404 -0.033725984 0.045008685 0.04146883 0.036068905 -0.05296843 -0.07832306
0.06408954 0.006776522 -0.042312607 0.021698419 -0.019745093 0.016391272 -0.002976234 -0.014232165
0.054923497 0.049897127 0.059168886 -0.05230581 0.0239299 0.051852524 0.043305818 0.045752153
-0.08029829 -0.014509291 0.020751053 -0.018336646 -0.005108004 -0.03587564 0.026581237 0.0018258563
0.040770825 0.013697951 0.044638745 -0.0073880265 -0.025685735 -0.026305972 0.0576549 0.06408573
0.017362662 0.08444077 -0.024579318 0.059980486 -0.005671498 0.0052701943 0.010817148 0.032130115
-0.061497338 0.0013870404 -0.04815634 0.04711786 -0.034020294 0.0037536528 -0.017862465 -0.029436888
0.023307793 -0.01732123 0.09555302 -0.06914855 0.027781876 0.08360238 0.008463474 0.06673509
-0.060143627 0.027407348 0.04825923 0.03281896 0.0009846945 -0.022483535 0.053345777 0.0479112
-0.009693354 -0.0114102205 -0.004569186 0.029905604 -0.019767739 0.048690386 -0.0018667938 0.0001319147
-0.060223673 0.059866674 0.025033062 -0.05623294 0.04360773 0.013210059 0.030145431 -0.008865279
00000000: 9b0b 253b 553e 5fbd d852 ba3c 5d5d 663d
00000010: 5198 e4bc ba16 88bb 02a4 dc3c 7553 8d3d
00000020: 65c5 d83c 28a8 ffba 08b2 73bd 6afb 333d
00000030: a184 3abc 6d09 21bd 131d 97bb ae5f 83bd
00000040: 25ae 38bd b8d7 223c eb1c bfbc 4990 e33c
00000050: d5be 313d 0a3f 0fbd 937f e43c d39f 82bc
00000060: 2e86 f03c 52c0 313d 7ebc d43c 9330 cdbb
00000070: da53 8b3a ba4f 653b 68e6 3b3d c5ef c93c
00000080: 56ff 16bd 4dbd 243b e896 ddbc 937f 1b3d
00000090: b34a d33d 82b5 293d 821d f13c f346 2abd
000000a0: 7304 76bc fdea e33a 0754 d4bc edf1 483c
000000b0: e6a3 903d daf6 123c 40b3 6d3a f457 2ebd
000000c0: a9bb 383d f806 19bd b3fe 9f3b d439 72bd
000000d0: 2d67 a83b f81d a3bc bac4 493c 43f5 4e3b
000000e0: e5df 60bd 68c5 1e3d 5e8d 9cbc 3f19 1c3d
000000f0: c2c2 86bc ef3d 08bc 2657 91bd a736 94bd
00000100: f8f7 943d b6f4 c6bd 048a 113c 9e4e 3e3c
00000110: 4c6d 14bd 91f7 c3bd 6b45 283d b521 073d
00000120: bff0 c23a 34be 57bd 54f5 9fbd 14a1 11bd
00000130: 753a 6dbd 851c 81bd 2c43 9dbd 0e0d 633c
00000140: 2bbc 353c b6ae 9cbd b4dc 76bd 2d84 83bd
00000150: ad0d 723d 30f4 2dbd 76d5 5b3d ee13 903d
00000160: f432 0ebd 5437 603c bb9f 923c 2ff2 103d
00000170: a835 2b3d bcba 5dbd 55f6 1dbc 61bf 353d
00000180: 7472 b5bd 68b0 c53c 73f2 553d ca10 5a3c
00000190: a54c 003d 1b6a 0bbd e49b 9fbd 7cc9 a23d
000001a0: 58d7 3bbd 0eef 1f3a 74a9 f7bc 00b8 74bd
000001b0: 4b0b aa3d f5fc 863d d130 1e3d 4a60 09ba
000001c0: 32ef 2f3d 76db 10bd c59f a23d 16e5 57bd
000001d0: d1ff 8abd 61b3 18bc e4de 073d 0e7e c03c
000001e0: ccc9 88bc 1146 cb3a 9189 d73c 570e 433d
000001f0: e7cd a7ba 3438 393b 1cf2 eabc 51f6 49bd
00000200: 93ce 0abd 71f1 5cbd f661 1bbb 9631 abbd
00000210: 3ac6 59bd c931 c13c d9fa f33c c63d 5b3d
00000220: c494 c738 6a74 4439 c89f e0bb a823 be3c
00000230: aa79 493d a221 99b9 b874 39bc 6604 853d
00000240: 11f6 1bbd 18ff 043d a7fc 99bd fb57 8bbd
00000250: a767 80bd 67f3 88bc 4142 06bd a3aa 04bd
00000260: 8d84 3b3d cf4b 6d3d 32b7 a7bd 9b47 403d
00000270: d226 8dbc 7b34 bebc 45c9 353d 2034 053c
00000280: 797b 94bc be06 46bd 8546 953d 34bd 9bbd
00000290: aa58 ccbc 22ec 343d ccc6 683d 271d ab3c
000002a0: d1fb fcbc f772 a73b 4224 0abd 075b 383d
000002b0: 38db 293d fdbc 133d 6df5 58bd d767 a0bd
000002c0: 6041 833d 960d de3b fc4f 2dbd e2c0 b13c
000002d0: 76c0 a1bc fd46 863c ec0c 43bb 072e 69bc
000002e0: 76f7 603d ee60 4c3d 135b 723d 9e3e 56bd
000002f0: a308 c43c 5063 543d 7161 313d 9c66 3b3d
00000300: 6e73 a4bd 61b8 6dbc 1dfe a93c bc36 96bc
00000310: 0b61 a7bb 56f2 12bd e5c0 d93c 9251 ef3a
00000320: 4fff 263d 5f6d 603c 1ed7 363d 4217 f2bb
00000330: e46a d2bc 9f7f d7bc 8b27 6c3d 613f 833d
00000340: 243c 8e3c 48ef ac3d 915a c9bc 19ae 753d
00000350: f9d7 b9bb 98b1 ac3b 683a 313c de9a 033d
00000360: a2e4 7bbd 5acd b53a 953f 45bd a8fe 403d
00000370: dd58 0bbd d8ff 753b 4e54 92bc a125 f1bc
00000380: fcef be3c 41e5 8dbc 4db1 c33d c19d 8dbd
00000390: d196 e33c b937 ab3d 62aa 0a3c 68ac 883d
000003a0: 2a59 76bd 6085 e03c 78ab 453d 2c6d 063d
000003b0: dd10 813a 642f b8bc 1a81 5a3d 893e 443d
000003c0: e0d0 1ebc eff1 3abc 1cb9 95bb 99fc f43c
000003d0: f4ef a1bc 926f 473d 35af f4ba 9552 0a39
000003e0: 19ad 76bd c236 753d 2312 cd3c 8354 66bd
000003f0: 059e 323d 016f 583c 8df3 f63c ad3f 11bc

arith.constant7 f4 [64, 3, 3, 32]
0.00561554 -0.06963736 0.05404395 -0.045340627 -0.0023757103 0.028299978 -0.07068804 0.0031874934
0.030192629 0.012378247 0.0847129 -0.08279297 -0.08300955 -0.014301372 0.041432932 0.030222695
-0.087555274 0.074851535 -0.04716222 0.022448178 -0.052416503 -0.10865203 0.094749734 -0.027759904
-0.06017304 0.059593134 0.034596227 0.01238706 0.047291037 0.06711965 0.08186671 0.04169046
0.036408924 0.0005291224 0.061433826 -0.048420664 -0.08040383 0.009483924 -0.008152339 -0.0018306472
0.023080764 -0.023441035 0.029812973 0.023511982 -0.03076491 -0.008950417 -0.039146822 -0.07448291
-0.039132874 0.05938226 -0.04504445 -0.09116123 -0.015261259 -0.027353426 0.025859997 -0.053913623
0.004730476 0.017456807 0.03210892 0.03314795 -0.06505111 0.05635876 -0.0563032 0.0038034795
0.07552797 -0.06960082 -0.016409464 0.067975715 -0.08686357 0.016771706 0.038668312 -0.0700947
0.013457019 0.014505673 0.07467252 -0.0020691073 -0.0661191 -0.037296023 -0.12514693 0.046948195
0.050877295 0.038383424 0.12688744 -0.019677721 0.06066784 0.042045373 0.11224467 -0.036869302
-0.07372276 -0.07457628 0.052133154 0.08188042 -0.0844869 0.058820017 0.016705107 -0.060572352
-0.016827984 -0.07524538 0.053614944 0.0570266 -0.037555583 -0.10852221 -0.09551669 -0.020901663
-0.046759054 -0.08399676 0.077136815 -0.015089689 -0.022203442 0.014435013 -0.009719604 -0.089396335
0.007832138 -0.038044445 -0.07158333 0.062436126 -0.09504567 -0.09255871 -0.035869636 -0.002197535
0.007876722 0.025050053 0.022744304 -0.07836633 0.039976906 0.04053702 -0.00037242577 0.0016493103
-0.045826774 0.00080380635 0.029405495 -0.06961984 -0.10653243 0.003613111 0.06237841 -0.09252922
0.073681474 -0.07386563 0.010912224 0.028303457 -0.10631625 0.0024918406 0.035441056 -0.10166066
-0.06344003 0.09054729 -0.020366678 -0.024289737 -0.069468714 -0.09731061 -0.009188389 0.016647428
0.09119992 -0.010201585 -0.05974401 0.036699783 0.003194728 0.016533531 0.065318346 -0.032299064
0.00022453479 -0.024953531 -0.07975161 0.05622941 -0.087813824 -0.004816313 0.07047425 -0.0066965143
0.11376379 -0.042438935 0.06777367 0.030449431 -0.013991592 0.069467224 -0.03620065 0.021944793
-0.057912603 -0.020618986 0.08201201 0.060840916 -0.062216017 0.025818337 0.070800476 -0.031278152
0.025971385 -0.026038093 -0.06767654 0.022746354 -0.018378729 0.020703554 0.0044088094 -0.064154625
-0.05386204 -0.026115304 0.0035633685 -0.06948439 -0.12994494 -0.06011952 -0.07572186 0.016617589
0.08271996 -0.09712738 -0.03317419 -0.079490416 -0.030702433 -0.095334046 0.0106857335 -0.08164218
0.04170458 -0.05701575 0.032326236 -0.062641054 0.030483773 0.051177867 -0.095961854 0.047566876
-0.019619118 0.061316647 -0.09500515 -0.07346197 -0.013395666 -0.06283646 -0.08416834 -0.040040683
-0.08128925 -0.07877444 0.029914698 0.0033304323 -0.090947166 -0.0750477 -0.07069986 0.012920952
-0.02615884 -0.0006542854 -0.014210199 -0.03155877 -0.09436051 0.086223625 -0.07446365 -0.02583725
0.05995474 0.030838115 -0.027210608 -0.007975808 -0.007560419 -0.1092283 -0.10656257 -0.04149881
-0.08759786 -0.044546925 0.046394393 0.003015309 0.058382608 -0.12269767 -0.037550285 -0.08317684
00000000: 9002 b83b 089e 8ebd 305d 5d3d 18b7 39bd
00000010: ceb1 1bbb 5bd5 e73c e4c4 90bd 44e5 503b
00000020: 8856 f73c 22ce 4a3c f57d ad3d 5c8f a9bd
00000030: e900 aabd 4d50 6abc 94b5 293d 9695 f73c
00000040: 2e50 b3bd c34b 993d 2c2d 41bd 3ee5 b73c
00000050: b0b2 56bd f584 debd 260c c23d bd68 e3bc
00000060: 0178 76bd ee17 743d c6b4 0d3d 18f3 4a3c
00000070: 3fb4 413d 0776 893d bca9 a73d 9ec3 2a3d
00000080: 8621 153d ceb4 0a3a 09a2 7b3d bf54 46bd
00000090: c3aa a4bd 7662 1b3c 6391 05bc 54f2 efba
000000a0: df13 bd3c 6a07 c0bc 563a f43c 339c c03c
000000b0: b106 fcbc c5a4 12bc 6b58 20bd 7f8a 98bd
000000c0: cb49 20bd d03a 733d 8780 38bd bdb2 babd
000000d0: 5c0a 7abc 4b14 e0bc 58d8 d33c 88d4 5cbd
000000e0: 1c02 9b3b 9401 8f3c a584 033d 25c6 073d
000000f0: 8439 85bd 71d8 663d 2f9e 66bd cc43 793b
00000100: 69ae 9a3d e08a 8ebd 246d 86bc da36 8b3d
00000110: 87e5 b1bd d164 893c aa62 1e3d cf8d 8fbd
00000120: d47a 5c3c 34a9 6d3c e8ed 983d dc99 07bb
00000130: 7369 87bd b7c3 18bd 8426 00be c04c 403d
00000140: b664 503d f037 1d3d c8ee 013e 2c33 a1bc
00000150: d77e 783d c537 2c3d 89e0 e53d 4404 17bd
00000160: f5fb 96bd 73bb 98bd 9389 553d ecb0 a73d
00000170: 7807 adbd 42ed 703d 26d9 883c b71a 78bd
00000180: d7da 89bc 401a 9abd 589b 5b3d b994 693d
00000190: e2d3 19bd e440 debd 419e c3bd f739 abbc
000001a0: 6c86 3fbd 7e06 acbd e8f9 9d3d be3a 77bc
000001b0: fee3 b5bc d580 6c3c f93e 1fbc 6d15 b7bd
000001c0: 5e52 003c 7ed4 1bbd 489a 92bd 06bd 7f3d
000001d0: 4ea7 c2bd 6c8f bdbd 0aec 12bd 8504 10bb
000001e0: 5e0d 013c c535 cd3c 4352 ba3c 877e a0bd
000001f0: d3be 233d 250a 263d 2442 c3b9 ac2d d83a
00000200: dbb4 3bbd 88b6 523a cbe3 f03c d994 8ebd
00000210: ad2d dabd f2c9 6c3b 8180 7f3d f67f bdbd
00000220: 50e6 963d dd46 97bd 2fc9 323c a7dc e73c
00000230: 56bc d9bd 264e 233b a42a 113d 7733 d0bd
00000240: d9ec 81bd dc70 b93d 05d8 a6bc 45fb c6bc
00000250: 9d45 8ebd c94a c7bd e68a 16bc 3060 883c
00000260: 06c7 ba3d 8c24 27bc 23b6 74bd 8352 163d
00000270: a45e 513b 5471 873c a0c5 853d 064c 04bd
00000280: 1971 6b39 596b ccbc d054 a3bd cf50 663d
00000290: bcd7 b3bd 29d2 9dbb ce54 903d 6f6e dbbb
000002a0: fdfc e83d 73d4 2dbd eccc 8a3d 1671 f93c
000002b0: fe3c 65bc d544 8e3d 2247 14bd 91c5 b33c
000002c0: c435 6dbd 26e9 a8bc eaf5 a73d 5334 793d
000002d0: 39d6 7ebd fa80 d33c d7ff 903d 851d 00bd
000002e0: f1c1 d43c d74d d5bc ff99 8abd 9056 ba3c
000002f0: fd8e 96bc 809a a93c c677 903b 8063 83bd
00000300: 719e 5cbd c3ef d5bc 6787 693b d54d 8ebd
00000310: 4910 05be e33f 76bd 1014 9bbd 9c21 883c
00000320: 1569 a93d b8ea c6bd a9e1 07bd dfcb a2bd
00000330: ab83 fbbc 7f3e c3bd 3713 2f3c 0434 a7bd
00000340: 6cd2 2a3d 5989 69bd 8468 043d f449 80bd
00000350: 1bb9 f93c e29f 513d a687 c4bd 7cd5 423d
00000360: 46b8 a0bc 2a27 7b3d 0f92 c2bd 3b73 96bd
00000370: 7f79 5bbc 67b0 80bd 7360 acbd b301 24bd
00000380: fa7a a6bd 7e54 a1bd ab0f f53c 6243 5a3b
00000390: 8242 babd 9cb2 99bd 17cb 90bd 67b2 533c
000003a0: 104b d6bc 5a84 2bba e5d1 68bc c543 01bd
000003b0: 1540 c1bd 0396 b03d 6680 98bd a4a8 d3bc
000003c0: 1a93 753d 37a0 fc3c c8e8 debc f7ac 02bc
000003d0: 64bd f7bb 16b3 dfbd 7a3d dabd a8fa 29bd
000003e0: 8266 b3bd d676 36bd 0c08 3e3d 7e9c 453b
000003f0: 9a22 6f3d ea48 fbbd 54ce 19bd 9e58 aabd

arith.constant8 f4 [6, 128]
0.01677861 -0.010543802 0.028396528 -0.024669006 0.08974851 -0.102257594 -0.03728317 0.07990316
-0.081845395 0.033034254 0.09391148 0.093297385 -0.12072391 -0.06643351 -0.00060081034 -0.20317645
-0.13423505 -0.02415154 -0.04801249 -0.03573861 -0.08219519 -0.08394692 -0.14670856 0.0954714
-0.064821966 0.033287175 -0.0343635 0.016711736 0.07025023 0.10282863 -0.2522393 -0.003847334
-0.1543509 -0.027196629 0.061799787 -0.17108539 -0.053980943 0.045133784 0.012843171 -0.07131324
-0.09776257 -0.18608543 0.15827124 0.060863677 0.11797 0.11966427 -0.101278126 -0.14348318
-0.06264116 -0.15730296 0.04115341 0.13431343 -0.13465191 0.0680406 -0.13841027 0.067329764
-0.052397486 -0.017933924 -0.07220629 -0.12302211 -0.18165767 0.021623844 -0.20371638 0.068755746
0.13042927 -0.17277221 0.02142537 0.16935046 0.0027765934 0.05753621 -0.117570415 0.19308268
0.12500098 -0.20865116 -0.14456105 0.061729863 -0.111507475 -0.061375756 0.012212068 -0.18294753
-0.0780654 0.0567748 -0.012925481 0.13440943 0.012517555 0.03733269 -0.0012960315 0.039646704
-0.07450764 0.1829249 -0.0699523 -0.040566824 0.03939758 -0.028266022 0.06116851 -0.086861454
0.029859975 0.033086132 -0.21852347 -0.06192099 0.142885 -0.051181447 -0.17825392 -0.103497736
-0.14058748 0.064118326 0.10709493 0.06833099 0.18208928 0.00585758 -0.09741644 -0.08911918
0.11676874 -0.058085646 -0.010215271 -0.14935192 0.006647292 0.13242123 -0.021330688 0.15930857
0.04503284 0.014788997 -0.105302244 0.079906225 -0.043901235 -0.0257144 0.00557762 -0.049076602
0.073636636 -0.10213756 -0.0034974788 -0.21295509 0.05116155 -0.2046269 0.1027206 0.058767423
0.0635936 -0.20736632 0.0044149756 -0.1646987 0.014914854 0.091526024 0.10612242 0.1411653
0.2333829 0.10893444 0.25134373 0.27115306 -0.21383087 -0.19798651 -0.042410735 -0.18755747
-0.13755935 -0.038643822 0.025763996 -0.013729166 -0.02546234 -0.0815527 -0.1528042 0.08574865
-0.040092863 -0.1741033 -0.16307883 -0.0025056284 -0.25043562 -0.17311662 -0.19521189 -0.2587507
0.120021656 0.15291242 0.037392218 -0.22385217 -0.27937192 0.17002042 0.14292122 -0.10583138
0.22394493 0.14646141 0.17281777 0.24805744 0.038946778 0.120838374 0.22131021 -0.015222173
-0.23742901 -0.12262353 -0.06493823 -0.14937304 0.19776455 -0.19831064 0.21388544 0.14839311
-0.18284366 0.0039486294 -0.1369209 0.09856966 -0.23374361 -0.026419437 0.20583689 -0.020509781
-0.07554188 0.14325455 -0.23213291 -0.076282606 -0.18107766 -0.057309564 -0.08779806 -0.21910362
0.118215084 0.25258565 -0.14072335 0.016479552 0.0022107018 -0.17116284 -0.21915813 -0.25712514
-0.12079228 -0.106418334 -0.01739168 0.026342325 0.024885695 0.17030852 -0.061862662 -0.21536657
-0.1472454 0.19098875 0.17797264 -0.068108775 -0.08001532 0.055316504 -0.057749636 -0.16281982
-0.08479406 -0.22343272 -0.20524853 -0.2738049 -0.18341845 0.16288865 -0.23264915 -0.19874248
-0.22950912 -0.2664335 -0.19118983 0.1082712 -0.08304159 0.13169053 0.0867131 0.06589141
0.016210014 0.043108605 -0.31201684 0.13863029 -0.24187887 -0.12229718 0.011962484 0.1440002
00000000: 4c73 893c e9bf 2cbc d69f e83c a816 cabc
00000010: 11ce b73d 6e6c d1bd 3db6 18bd 45a4 a33d
00000020: 8f9e a7bd ed4e 073d a954 c03d b312 bf3d
00000030: 193e f7bd 4b0e 88bd b37f 1dba 7d0d 50be
00000040: ea74 09be 73d9 c5bc bfa8 44bd a662 12bd
00000050: f455 a8bd 5dec abbd c53a 16be 8286 c33d
00000060: 61c1 84bd 2258 083d bec0 0cbd 0de7 883c
00000070: 5adf 8f3d d197 d23d 8225 81be 8e23 7cbb
00000080: 2a0e 1ebe 77cb debc c621 7d3d 0231 2fbe
00000090: 1f1b 5dbd 34de 383d 2a6c 523c ad0c 92bd
000000a0: be37 c8bd 2e8d 3ebe db11 223e 314c 793d
000000b0: 419a f13d 8a12 f53d e86a cfbd 41ed 12be
000000c0: 024a 80bd 0714 21be 7a90 283d 7689 093e
000000d0: 31e2 09be df58 8b3d 6cbb 0dbe 30e4 893d
000000e0: bf9e 56bd 2aea 92bc e4e0 93bd 04f3 fbbd
000000f0: 7804 3abe 7d24 b13c 079b 50be d0cf 8c3d
00000100: 408f 053e 33eb 30be 4284 af3c 356a 2d3e
00000110: 82f7 353b 17ab 6b3d c2c8 f0bd 77b7 453e
00000120: 4200 003e a6a8 55be d007 14be 74d8 7c3d
00000130: 085e e4bd 2565 7bbd 2015 483c 9956 3bbe
00000140: c1e0 9fbd b18c 683d 66c5 53bc a0a2 093e
00000150: 6e16 4d3c 2aea 183d 9adf a9ba 9564 223d
00000160: 7697 98bd aa50 3b3e 2743 8fbd 6629 26bd
00000170: 5b5f 213d 258e e7bc d58b 7a3d 6be4 b1bd
00000180: e89c f43c 5385 073d 9ec4 5fbe dda0 7dbd
00000190: 7250 123e a3a3 51bd 3288 36be 9ff6 d3bd
000001a0: 2af6 0fbe 7850 833d 9654 db3d 1ef1 8b3d
000001b0: 9d75 3a3e f1f0 bf3b 4582 c7bd 1e84 b6bd
000001c0: 7324 ef3d 37eb 6dbd f45d 27bc b6ef 18be
000001d0: 87d1 d93b 6e99 073e b2bd aebc c921 233e
000001e0: 5b74 383d 8d4d 723c b4a8 d7bd e0a5 a33d
000001f0: c8d1 33bd 01a7 d2bc 78c4 b63b 8c04 49bd
00000200: cece 963d 7f2d d1bd f535 65bb e610 5abe
00000210: c68e 513d b789 51be 2e5f d23d 1cb6 703d
00000220: 5d3d 823d d657 54be 80ab 903b c7a6 28be
00000230: 6f5d 743c ff71 bb3d b656 d93d a38d 103e
00000240: edfb 6e3e 0519 df3d 20b0 803e 93d4 8a3e
00000250: 7bf6 5abe fabc 4abe e1b6 2dbd 110f 40be
00000260: 5cdc 0cbe fc48 1ebd 040f d33c 4cf0 60bc
00000270: 6696 d0bc 1a05 a7bd b478 1cbe fd9c af3d
00000280: 6a38 24bd 2348 32be 23fe 26be 7835 24bb
00000290: 1939 80be 7c45 31be a0e5 47be f97a 84be
000002a0: eacd f53d 1395 1c3e 9528 193d 8139 65be
000002b0: d609 8fbe d519 2e3e f159 123e 1fbe d8bd
000002c0: d251 653e fbf9 153e 24f7 303e c502 7e3e
000002d0: a886 1f3d 1c7a f73d 259f 623e 6c66 79bc
000002e0: 9720 73be 0c22 fbbd 56fe 84bd 3ff5 18be
000002f0: ca82 4a3e f211 4bbe c904 5b3e 5df4 173e
00000300: 5e3b 3bbe 8163 813b fe34 0cbe e4de c93d
00000310: 7c5a 6fbe 936d d8bc e8c6 523e 2104 a8bc
00000320: b4b5 9abd 52b1 123e 40b4 6dbe 0e3a 9cbd
00000330: 6c6c 39be 6fbd 6abd 78cf b3bd b35c 60be
00000340: c01a f23d e852 813e c819 10be 2000 873c
00000350: 6ce1 103b 5045 2fbe fd6a 60be e8a5 83be
00000360: f161 f7bd dbf1 d9bd ff78 8ebc dccb d73c
00000370: 16dd cb3c 5b65 2e3e b463 7dbd 0e89 5cbe
00000380: 80c7 16be 8e92 433e 763e 363e 9d7c 8bbd
00000390: 12df a3bd 8f93 623d e28a 6cbd 3dba 26be
000003a0: 82a8 adbd 8ccb 64be ac2c 52be 2830 8cbe
000003b0: 0cd2 3bbe 48cc 263e 943b 6ebe 2683 4bbe
000003c0: 7004 6bbe f969 88be 44c7 43be 4abd dd3d
000003d0: b611 aabd e2d9 063e a396 b13d 13f2 863d
000003e0: ddca 843c a692 303d acc0 9fbe 19f5 0d3e
000003f0: 18af 77be f276 fabd 4bfe 433c ca74 133e

arith.constant9 f4 [128, 800]
0.028041419 -0.04092974 0.0034437214 -0.073296785 0.03770349 -0.013904444 -0.007897613 -0.021295033
0.07152775 -0.023212729 0.04690721 -0.07664688 0.03980318 0.009466741 0.05199516 0.081446156
-0.080797926 0.060052022 0.034312833 0.10303241 0.03920198 0.09598435 0.03381253 0.05790902
-0.07051826 0.0021456724 0.048843212 -0.03789224 0.010898747 0.04597204 -0.0013438604 0.015737027
0.090332076 0.051288866 0.04201226 -0.008876854 0.058168173 0.04885924 0.09879549 -0.009916503
0.061855122 0.033934604 -0.07523075 0.037924238 -0.03366904 0.07577879 0.029429385 0.010355593
-0.014372871 0.08443992 0.03800917 -0.041449282 -0.05563983 0.044196483 -0.017222686 -0.054617044
0.030293336 -0.054731563 -0.03144389 -0.009650352 -0.0664806 0.05633286 -0.05962965 -0.07117092
0.11291406 0.049754538 0.10882577 -0.014179531 0.10576364 0.008307188 -0.11245049 -0.021917155
-0.03390505 0.0331084 -0.017855152 -0.035304803 0.044285975 0.092733555 0.075519904 0.10570052
-0.08527099 -0.013816457 -0.0027237039 -0.033201072 -0.033026736 0.06773755 0.07600618 -0.03177883
0.0072774943 -0.06050736 0.0023419023 -0.024861071 -0.05139342 0.09271756 0.027984278 -0.055725414
-0.009815502 -0.046774223 0.009610099 0.03190886 -0.011052587 0.01513529 -0.030769115 -0.0023767469
-0.046417963 -0.027424116 -0.026253592 -0.08752732 0.008789467 -0.032275103 0.035485506 -0.00025606778
-0.07380177 -0.0024197109 -0.018714257 0.061079334 0.043181106 0.052874804 0.065783866 0.016839646
0.058248118 -0.05751853 0.004460135 0.0758238 0.05795278 -0.060951076 -0.106253415 -0.05137536
0.008866139 -0.06266351 0.02278131 0.018936897 -0.0008866495 -0.04157149 -0.029743291 0.008366292
0.023748195 -0.006360779 0.008488567 -0.014204253 0.04359458 -0.039171796 0.020881645 0.10784947
0.06492096 -0.039910357 0.041874375 0.0497295 -0.07440306 -0.06388003 -0.01307671 -0.033210695
0.09807945 -0.080979265 -0.10484669 0.04308918 0.021032613 0.027710538 -0.0601928 -0.026560677
0.010615355 0.07588091 -0.02228977 -0.04909326 -0.00029797677 -0.030959811 0.06747022 0.047196213
-0.010203768 -0.010479522 -0.014818497 -0.07246446 -0.083422914 -0.019603284 0.015806152 -0.0030486959
-0.12554154 -0.07147402 -0.082985446 -0.0197243 -0.10962101 0.08862621 0.074649625 0.06533379
0.008016089 0.023592563 0.0017085045 -0.021337977 0.05668195 -0.021860963 -0.00993539 -0.008407948
0.018653402 -0.052719213 -0.065752484 0.03496187 -0.031923488 -0.08331733 -0.081198215 0.10256489
-0.053126536 0.01431791 -0.018939756 0.008937632 -0.08570805 -0.024085086 0.023239808 -0.057729665
0.014617333 -0.055176992 -0.015400172 0.05262346 -0.07647781 0.086765386 -0.027451929 0.019513002
0.026685094 -0.019115394 -0.122432604 0.0056834365 0.016064331 -0.06391016 -0.053390346 0.051307976
-0.034879945 0.015756847 0.0117350845 -0.07979769 0.0762311 -0.11111404 -0.061184503 0.045038298
0.06032875 -0.098841235 -0.13499384 -0.080694094 0.0046638376 0.00031416642 -0.0440043 -0.01620678
-0.08978436 -0.004250148 -0.025430942 0.07876731 -0.046888523 -0.03433994 -0.082744844 -0.057607178
-0.01163502 -0.04406108 0.021790614 0.12890588 0.053266525 -0.06326055 -0.11837598 0.08728466
00000000: 1eb7 e53c f1a5 27bd 0fb0 613b a01c 96bd
00000010: fa6e 1a3d 77cf 63bc fd64 01bc ec72 aebc
00000020: 247d 923d 9f28 bebc c621 403d 0af9 9cbd
00000030: a908 233d 641a 1b3c e0f8 543d 3ecd a63d
00000040: 6279 a5bd 1cf9 753d 9d8b 0c3d a802 d33d
00000050: 4192 203d 7193 c43d 027f 0a3d 0232 6d3d
00000060: e16b 90bd 699e 0c3b d20f 483d e534 1bbd
00000070: a890 323c 2e4d 3c3d 7924 b0ba f0ea 803c
00000080: 0600 b93d 4614 523d 0c15 2c3d 3970 11bc
00000090: c041 6e3d a020 483d 4a55 ca3d d478 22bc
000000a0: cc5b 7d3d 03ff 0a3d 9412 9abd 7256 1b3d
000000b0: 8ce8 09bd e931 9b3d e515 f13c 81aa 293c
000000c0: 317c 6bbc d6ee ac3d 81af 1b3d b9c6 29bd
000000d0: 97e6 63bd 5f07 353d 9716 8dbc 1fb6 5fbd
000000e0: bb29 f83c 342e 60bd 4fcb 00bd 831c 1ebc
000000f0: fb26 88bd 49bd 663d 383e 74bd 0fc2 91bd
00000100: 7d3f e73d 6acb 4b3d 0ce0 de3d 4351 68bc
00000110: 9b9a d83d df1a 083c 714c e6bd 9b8b b3bc
00000120: 06e0 0abd ac9c 073d f844 92bc c59b 10bd
00000130: 3665 353d 17eb bd3d 2eaa 9a3d 8479 d83d
00000140: 8fa2 aebd 6c5e 62bc 2b80 32bb d9fd 07bd
00000150: 0b47 07bd fcb9 8a3d 21a9 9b3d 852a 02bd
00000160: 0c78 ee3b 91d6 77bd 9a7a 193b 72a9 cbbc
00000170: e881 52bd b4e2 bd3d 493f e53c 5540 64bd
00000180: 33d1 20bc 5496 3fbd ad73 1d3c ddb2 023d
00000190: e915 35bc 02fa 773c 830f fcbc 32c3 1bbb
000001a0: c320 3ebd 8aa8 e0bc c611 d7bc 8641 b3bd
000001b0: b201 103c e632 04bd 4059 113d d640 86b9
000001c0: 6225 97bd 0394 1ebb a44e 99bc 532e 7a3d
000001d0: acde 303d 4093 583d b1b9 863d 4cf3 893c
000001e0: 9495 6e3d 8d98 6bbd 5326 923b 8249 9b3d
000001f0: e55f 6d3d d6a7 79bd 649b d9bd f86e 52bd
00000200: 4843 113c ba55 80bd df9f ba3c 8d21 9b3c
00000210: 0a6e 68ba de46 2abd 34a8 f3bc c612 093c
00000220: 938b c23c 156e d0bb a113 0b3c f5b8 68bc
00000230: 3b90 323d 9b72 20bd fc0f ab3c 2fe0 dc3d
00000240: 48f5 843d 0b79 23bd 7784 2b3d 29b1 4b3d
00000250: a260 98bd 88d3 82bd b23f 56bc f007 08bd
00000260: e1dd c83d 75d8 a5bd ddb9 d6bd 487e 303d
00000270: 964c ac3c 3601 e33c ba8c 76bd c795 d9bc
00000280: 07ec 2d3c 7367 9b3d 0999 b6bc 0416 49bd
00000290: c439 9cb9 6e9f fdbc d42d 8a3d d150 413d
000002a0: b42d 27bc 4db2 2bbc 48c9 72bc 3f68 94bd
000002b0: a2d9 aabd 1197 a0bc e77b 813c a1cc 47bb
000002c0: f68d 00be f960 92bd 46f4 a9bd db94 a1bc
000002d0: fb80 e0bd a981 b53d e7e1 983d b9cd 853d
000002e0: ea55 033c 3145 c13c e6ef df3a fbcc aebc
000002f0: 552b 683d c315 b3bc 0cc8 22bc 7dc1 09bc
00000300: 05cf 983c 1af0 57bd 3da9 86bd 2e34 0f3d
00000310: 34c2 02bd 47a2 aabd 404b a6bd 8b0d d23d
00000320: 369b 59bd ab95 6a3c 8c27 9bbc 256f 123c
00000330: b487 afbd 164e c5bc 6961 be3c f175 6cbd
00000340: 8a7d 6f3c 4501 62bd 0151 7cbc b28b 573d
00000350: 66a0 9cbd 0db2 b13d dee2 e0bc bbd9 9f3c
00000360: b39a da3c e397 9cbc f2bd fabd 1f3c ba3b
00000370: 5899 833c 54e3 82bd d6af 5abd 5028 523d
00000380: 46de 0ebd 8114 813c 8344 403c f96c a3bd
00000390: 0d1f 9c3d c28f e3bd 9a9c 7abd 147a 383d
000003a0: 481b 773d 466d cabd d33b 0abe f242 a5bd
000003b0: 1bd3 983b b4b6 a439 da3d 34bd 15c4 84bc
000003c0: dde0 b7bd d344 8bbb 8d54 d0bc c150 a13d
000003d0: 2e0e 40bd 09a8 0cbd 2176 a9bd 81f5 6bbd
000003e0: d0a0 3ebc 6479 34bd 3b82 b23c e7ff 033e
000003f0: 002e 5a3d bf8e 81bd 1b6f f2bd 4dc2 b23d

arith.constant10 f4 [128]
0.023076847 -0.041460432 -0.022342874 0.019840963 -0.005803649 -0.013055791 -0.0176331 -0.02099755
-0.014740657 -0.025964951 -0.016443888 -0.06136894 -0.034496937 -0.029490188 -0.027125616 -0.0058509456
-0.024828564 -0.033555828 -0.024787689 -0.003879878 -0.010231083 -0.0015286629 -0.024271335 0.011435285
-0.0013153278 -0.008669635 0.007836679 -0.017940765 0.040639695 -0.04961958 -0.0010869043 -0.036218025
-0.045356497 -0.017298605 -0.00087974 -0.028464729 0.038198482 -0.010564384 -0.05011949 0.004788911
-0.024198767 -0.04082071 -0.05272109 -0.056983057 0.021433199 -0.040039826 -0.013887252 -0.021012254
0.003339286 0.01748606 -0.029839518 0.007632666 -0.039394863 -0.01909104 -0.02068367 -0.0249168
-0.021729719 -0.013572858 -0.034635253 -0.037973356 -0.003153734 -0.008266859 -0.050438564 -0.04818562
0.0155986855 -0.025604818 -0.059568565 0.028812803 -0.04701218 -0.039868254 -0.01645049 -0.0025850548
0.02005268 -0.008856727 -0.024041025 -0.039835077 -0.05530592 -0.03782109 -0.048799142 0.008555436
0.012332632 -0.010432579 -0.009801938 0.043586478 0.022990597 -0.009345327 -0.010531331 -0.017705219
-0.031965613 0.036482424 -0.046887882 -0.0058249678 0.0051111444 -0.03389772 0.019037921 -0.035198458
-0.046588168 -0.003050977 0.0014076693 -0.017320186 0.015770534 -0.039223783 -0.0074789627 -0.031111613
-0.040829707 -0.028632697 -0.0010235051 0.02000217 0.058534168 -0.040495858 0.0036362566 -0.0064005484
0.038094085 -0.01965803 -0.03260617 -0.040196158 -0.024383564 -0.035439525 -0.018659987 0.02629727
-0.02522958 -0.005994929 -0.005601651 -0.04175491 -0.030172875 -0.017246187 -0.014665895 0.0011307787
00000000: a80b bd3c 6ad2 29bd 6708 b7bc 8489 a23c
00000010: 892c bebb f5e7 55bc 4a73 90bc 0e03 acbc
00000020: cc82 71bc 73b4 d4bc 55b5 86bc ff5d 7bbd
00000030: a94c 0dbd 6895 f1bc 8a36 debc 4ab9 bfbb
00000040: 4665 cbbc d671 09bd 8d0f cbbc 8d45 7ebb
00000050: 46a0 27bc 6a5d c8ba aed4 c6bc 105b 3b3c
00000060: 1467 acba 160b 0ebc 6a65 003c 83f8 92bc
00000070: cf75 263d e73d 4bbd 7576 8eba 5a59 14bd
00000080: bcc7 39bd ceb5 8dbc 5a9e 66ba dd2e e9bc
00000090: 0376 1c3d 3d16 2dbc 184a 4dbd 4cec 9c3b
000000a0: 7e3c c6bc 9e33 27bd 12f2 57bd 1167 69bd
000000b0: ad94 af3c cd00 24bd 5b87 63bc e421 acbc
000000c0: ecd7 5a3b ed3e 8f3c 0172 f4bc 711b fa3b
000000d0: 825c 21bd d064 9cbc cd70 a9bc 511e ccbc
000000e0: 8602 b2bc b160 5ebc b2dd 0dbd f389 1bbd
000000f0: e0ae 4ebb b871 07bc ab98 4ebd 495e 45bd
00000100: a191 7f3c 32c1 d1bc 2bfe 73bd d408 ec3c
00000110: d88f 40bd e54c 23bd 2ec3 86bc 066a 29bb
00000120: 8545 a43c ce1b 11bc aff1 c4bc 1b2a 23bd
00000130: 7688 62bd 4aea 1abd 9ce1 47bd 192c 0c3c
00000140: cf0e 4a3c 68ed 2abc 4f98 20bc bc87 323d
00000150: c756 bc3c 241d 19bc 9b8b 2cbc 890a 91bc
00000160: 60ee 02bd 986e 153d 820d 40bd 5fdf bebb
00000170: 637b a73b 56d8 0abd 6af5 9b3c 422c 10bd
00000180: 3cd3 3ebd e6f2 47bb 8b81 b83a 10e3 8dbc
00000190: 3531 813c 1ea9 20bd 1612 f5bb c8dd febc
000001a0: 0d3d 27bd 1e8f eabc 2227 86ba 97db a33c
000001b0: 86c1 6f3d fcde 25bd 434e 6e3b b1bb d1bb
000001c0: 8b08 1c3d e009 a1bc 0c8e 05bd baa4 24bd
000001d0: 0ac0 c7bc 0929 11bd d4dc 98bc 5f6d d73c
000001e0: 44ae cebc 1c71 c4bb 0e8e b7bb 3207 2bbd
000001f0: 1b2d f7bc e047 8dbc 3949 70bc a336 943a

arith.constant11 f4 [6]
0.016040163 -0.046581846 -0.040571492 0.024735413 -0.0038863565 -0.033105895
00000000: a966 833c 9bcc 3ebd 4b2e 26bd eca1 ca3c
00000010: 3eb2 7ebb 0c9a 07bd

sequential_1/batch_normalization_1_2/batchnorm/mul f4 [64]
0.8869904 0.7529978 0.74778 0.95888627 1.1038234 1.2592349 0.96227366 1.1733474
0.94712317 0.94807136 0.82925665 1.1407856 0.66958106 0.6855625 0.90584195 0.6879659
0.8929917 0.97399414 1.0417947 0.6033232 0.97274256 0.77961475 1.1836568 0.7792996
0.7419065 1.2423013 1.3530593 1.0744681 1.1091883 0.9323895 0.80752575 0.95563054
1.4028075 1.1234229 0.7544762 0.95887387 0.720817 1.1574055 1.3944175 0.9631463
0.7791902 0.7008655 1.2386535 1.341231 1.1281744 0.8524325 0.9798756 1.0912251
0.75004745 0.6486551 1.1467657 1.2403814 0.8226006 1.2663488 1.1030446 0.57069176
0.8140926 0.9693441 0.72123873 0.97961324 0.9773559 1.422092 0.8265509 1.014526
00000000: ce11 633f 77c4 403f 836e 3f3f 9279 753f
00000010: 164a 8d3f 9c2e a13f 9157 763f 3f30 963f
00000020: aa76 723f ceb4 723f 2a4a 543f 4305 923f
00000030: aa69 2b3f 0681 2f3f 42e5 673f 891e 303f
00000040: 1b9b 643f ae57 793f 8759 853f 6473 1a3f
00000050: a805 793f d594 473f 1182 973f 2e80 473f
00000060: 96ed 3d3f bb03 9f3f 0c31 ad3f 2c88 893f
00000070: e2f9 8d3f 14b1 6e3f 02ba 4e3f 34a4 743f
00000080: 328f b33f 52cc 8f3f 5a25 413f c278 753f
00000090: 7787 383f dd25 943f 467c b23f c290 763f
000000a0: 0279 473f ec6b 333f 338c 9e3f 75ad ab3f
000000b0: 0568 903f 0439 5a3f 21d9 7a3f 44ad 8b3f
000000c0: 1c03 403f 430e 263f 38c9 923f d1c4 9e3f
000000d0: f495 523f b817 a23f 9130 8d3f db18 123f
000000e0: 5f68 503f ef26 783f 1aa3 383f efc7 7a3f
000000f0: ff33 7a3f 1c07 b63f d798 533f fddb 813f
