Flutter_app/assets/final_FR_model_lite.tflite (tflite, 981504 bytes, 24 tensors)

arith.constant f4 [32]
0	0x3c95f614	0.018305816
1	0xbc1611ea	-0.0091595445
2	0xbcd71e95	-0.0262597
3	0xbcdc2b62	-0.026876155
4	0x3cef8817	0.029239697
5	0xbbce6096	-0.006298135
6	0xbca208eb	-0.019779643
7	0xbc0b0af5	-0.008486499
8	0x3bf0debd	0.007350771
9	0xbb2a935b	-0.0026027772
10	0x3c643e6c	0.013930898
11	0x3bd30e7f	0.006440937
12	0xbc433cac	-0.011916321
13	0xbd059156	-0.032609306
14	0xbc3510df	-0.011051386
15	0xbc04e229	-0.008110561
16	0xbce75e76	-0.028243285
17	0x3cff13a4	0.031137295
18	0x3c824bae	0.015905228
19	0x3bbfce99	0.005853486
20	0xbd05f809	-0.032707248
21	0xbce6aeb1	-0.028159471
22	0xbd0cce5a	-0.03437648
23	0xbc083f68	-0.0083158985
24	0xbc81b8b5	-0.015835145
25	0xbcee8591	-0.029116424
26	0x3a0d9809	0.0005401378
27	0xbc7348f1	-0.014848934
28	0xbc8defa6	-0.017326187
29	0x3c7b4df7	0.0153384125
30	0xbc7c7a98	-0.015410088
31	0x3c4a4254	0.012344915

arith.constant1 f4 [96]
0	0x3bfc4eb6	0.0076998128
1	0x3a10dfc9	0.00055265106
2	0x3d232b03	0.03983594
3	0x3c8f286b	0.017475327
4	0xbc818b25	-0.01581342
5	0x3b184f37	0.0023240575
6	0xbd0eb0fb	-0.03483675
7	0xbcb57ef3	-0.02215526
8	0xbc06acc7	-0.008219904
9	0xbc57f3f9	-0.013180726
10	0xbca972a8	-0.020684555
11	0x3c7c5057	0.015400014
12	0xbc6ea3b8	-0.014565401
13	0x3c2be2e5	0.010491108
14	0xbc1e88b5	-0.009676148
15	0xbcd0a001	-0.02546692
16	0xbcc3afda	-0.023887563
17	0x3b8c6f35	0.004285718
18	0xbd1e10f4	-0.038590387
19	0xbc03b767	-0.008039332
20	0xbc7eb84c	-0.0155468695
21	0xbd362f80	-0.044478893
22	0x3b7eed53	0.003889878
23	0x391517b7	0.00014218582
24	0xbba1f81e	-0.004942908
25	0xbcba4be5	-0.022741267
26	0xbd1552be	-0.036455862
27	0x3bc80385	0.006103935
28	0xbb2827f2	-0.0025658575
29	0xbd0eab35	-0.034831244
30	0xbca9d0f9	-0.020729529
31	0xbcbfb67c	-0.023402445
32	0xbcdc0f75	-0.02686284
33	0x3afa647d	0.0019103434
34	0xbcf594de	-0.029978212
35	0xbb24a31d	-0.0025121637
36	0xbd291333	-0.041278075
37	0xbc88953d	-0.016672725
38	0x3b7ed635	0.0038885002
39	0xbb6b3d6b	-0.0035894762
40	0xbd0648bb	-0.032784205
41	0xbb191f39	-0.0023364557
42	0xbbfcc333	-0.0077136992
43	0xbca4aa72	-0.020100806
44	0xbcaffef0	-0.021483868
45	0xbb797deb	-0.0038069438
46	0xbce6e36c	-0.028184615
47	0xbaf23bd8	-0.001848097
48	0xbc4ce50f	-0.012505784
49	0xbcfba5e0	-0.030718744
50	0xbd3d1ec8	-0.046171933
51	0xbc016a0a	-0.007898817
52	0xbcfae270	-0.030625552
53	0xbce5012c	-0.02795466
54	0xbc275fa1	-0.010215671
55	0xbb7197a1	-0.003686406
56	0xbd0c5c7f	-0.0342679
57	0xbc55b270	-0.013043031
58	0xbb194530	-0.0023387186
59	0x3b00b37c	0.001963823
60	0xbcb99d6c	-0.022658072
61	0xbcc990cf	-0.024605183
62	0xbc518456	-0.012787899
63	0x3bc0abd1	0.005879857
64	0xbc297693	-0.010343212
65	0xbc357184	-0.0110744275
66	0xbceea737	-0.029132469
67	0x3b2712a6	0.0025493293
68	0xbceb8bbe	-0.028753158
69	0xbc418972	-0.011812555
70	0xbc75e7c0	-0.015008867
71	0x3b9239ea	0.0044624703
72	0xbb7c3e43	-0.003848926
73	0x3d0a0ca1	0.03370345
74	0xbbf80b5d	-0.007569714
75	0xbcb3c7b5	-0.021945814
76	0x3c55d374	0.013050903
77	0xbd208837	-0.039192405
78	0x3c1a2d56	0.009410223
79	0x3c624d07	0.01381231
80	0xbbb24d20	-0.005441323
81	0x3bb49747	0.0055111977
82	0xbccc7ecd	-0.024962807
83	0x3a38203c	0.0007023846
84	0xbc66d76f	-0.014089449
85	0xbd0c67c7	-0.034278657
86	0xbcab969e	-0.020945843
87	0xbd0d7520	-0.034535527
88	0xbc6e350d	-0.0145390155
89	0xbb98a769	-0.0046586287
90	0xbc7f294d	-0.015573812
91	0xbc20c8eb	-0.009813528
92	0x3a8f8ec9	0.0010952587
93	0xbc620e8f	-0.013797416
94	0x3ba76108	0.0051080026
95	0xbc8c9dac	-0.017165028

arith.constant2 f4 [64]
0	0x3ac80f64	0.0015263376
1	0xbcd2406f	-0.02566549
2	0x3b9d2f96	0.0047969325
3	0xbc2230f2	-0.009899365
4	0xbcb8bcec	-0.022551022
5	0xba9f5668	-0.0012156488
6	0xbc9028bf	-0.017597554
7	0xbba01f00	-0.004886508
8	0xbc2e9e90	-0.010657921
9	0x37202684	9.545711e-06
10	0x39d4f076	0.00040614948
11	0xbcce5186	-0.025185358
12	0xbd1aed73	-0.037824105
13	0x3aab814d	0.0013084799
14	0x3cf337d6	0.02968971
15	0xbcfb25fa	-0.030657757
16	0xbc0af843	-0.008482042
17	0x3c9a440c	0.018831275
18	0xbc702823	-0.014658007
19	0xbca51c11	-0.020154985
20	0xba7560ac	-0.00093604135
21	0xbc05f3f8	-0.008175842
22	0xbb64506f	-0.0034837981
23	0xbb2447fb	-0.0025067318
24	0xbbce44a3	-0.006294803
25	0x3b86ef46	0.004117879
26	0x3c031549	0.00800068
27	0xbc8b3d64	-0.016997047
28	0xbc72297c	-0.014780398
29	0x3c58947a	0.013218993
30	0x3c2c022f	0.0104985675
31	0xbaf95010	-0.0019021053
32	0x39b12bc3	0.00033792676
33	0x3c0e52e2	0.008686753
34	0x3bd61fd4	0.006534556
35	0xbc9de81d	-0.01927572
36	0xbc1dcd46	-0.0096314605
37	0x3877b600	5.905889e-05
38	0xbc67b12a	-0.01414136
39	0x3d0f8350	0.03503734
40	0xbc347418	-0.011014007
41	0xbc71de22	-0.014762433
42	0x3c6b5d0f	0.014365449
43	0xbc4d1350	-0.0125168115
44	0x3ba456e3	0.0050152405
45	0x3c60973b	0.013707931
46	0x3b2e8746	0.0026630922
47	0x3afe6fcc	0.001941198
48	0x3cbb29d8	0.022847101
49	0xbcc143ed	-0.02359196
50	0xbb786155	-0.0037899811
51	0xbc6440b0	-0.013931438
52	0x3c7c2663	0.0153900115
53	0xbb03cb4c	-0.0020110188
54	0xbb457497	-0.0030129307
55	0xbb09400b	-0.0020942714
56	0x3c84f8b6	0.016231876
57	0xbcb0f4bd	-0.021601075
58	0xbc392f7e	-0.011302827
59	0xbbe75b6d	-0.0070604593
60	0xbc2432b8	-0.010021858
61	0xbc5c3c0b	-0.01344205
62	0x3b184f9c	0.002324081
63	0xbbfcdbde	-0.00771664

arith.constant3 f4 [64]
0	0xbbaa3323	-0.0051940843
1	0x3c979388	0.018502966
2	0x3ce3bcf5	0.027800063
3	0xbb5f63ee	-0.0034086662
4	0xbcbbf09e	-0.022941884
5	0x3c12a922	0.008951457
6	0x3c7df684	0.015500668
7	0x3c2cc7e8	0.010545708
8	0x3d051bde	0.03249728
9	0x3cbd51ec	0.023110352
10	0x3ca67763	0.0203206
11	0x3be28cba	0.0069137486
12	0xbb60716a	-0.0034247288
13	0xbbd077ce	-0.006361938
14	0xbd336f9b	-0.043807607
15	0x3a6f102e	0.00091195374
16	0x3c3647c0	0.011125505
17	0x3cc7910d	0.024361158
18	0x3d3d4f6a	0.046218313
19	0xbc0f4017	-0.008743308
20	0x3c0885f8	0.008332722
21	0x3c8530a6	0.016258549
22	0x3c971de9	0.01844688
23	0x3a88fe90	0.0010451842
24	0xbbe27948	-0.0069114305
25	0x3c880154	0.016602196
26	0xbd25df36	-0.040496074
27	0xbb85f968	-0.0040885694
28	0x3c1bd941	0.009512247
29	0xbca69050	-0.020332485
30	0x3bddb99f	0.0067665125
31	0x3b92b01b	0.00447656
32	0x3c2bf04e	0.010494305
33	0xbbb8e6a7	-0.0056427303
34	0x3cad1f85	0.021133194
35	0xbb088f18	-0.0020837244
36	0xbcb0c953	-0.021580374
37	0xba2e1eb6	-0.00066421495
38	0x3b4f7be8	0.0031659547
39	0xbb8b81b1	-0.004257404
40	0xbaff8727	-0.0019495235
41	0x3c4d7915	0.012541075
42	0x3ce92246	0.028458726
43	0xbc42e26e	-0.011894805
44	0xbb11d826	-0.0022254079
45	0x3c1bc3a8	0.009507097
46	0x3c94b578	0.018152937
47	0xbc2a287b	-0.010385628
48	0xbc65b230	-0.014019534
49	0xbc0d7e15	-0.008636017
50	0xbc4016a9	-0.011724153
51	0xbc29c3d5	-0.010361631
52	0x3c8ba863	0.017048066
53	0xbc78f4d3	-0.015195089
54	0xbc357f9f	-0.0110777905
55	0x3c476c9a	0.012171889
56	0xbb645861	-0.0034842717
57	0x3d1497c1	0.036277536
58	0x3c890c62	0.016729537
59	0x3c894ec4	0.016761191
60	0xbbeaa743	-0.0071610524
61	0x3ad69a41	0.0016372876
62	0xbc1d9bfd	-0.00961971
63	0x3b87294b	0.0041247956

arith.constant4 f4 [32, 3, 3, 96]
0	0x3da51bef	0.080619685
1	0xbd508af4	-0.050913766
2	0x3c02d5b2	0.007985519
3	0x3d9302d8	0.07178277
4	0xbcce6769	-0.025195794
5	0x3d937902	0.07200815
6	0x3d54457d	0.05182408
7	0x3d074e04	0.033033386
8	0x3d7678f2	0.060173936
9	0xbcac96db	-0.021068027
10	0xbd001321	-0.031268243
11	0x3be100e2	0.0068665603
12	0xbdc8372b	-0.097761475
13	0xbd8d7ab7	-0.069081716
14	0x3d998294	0.07495609
15	0xbc98adb2	-0.018637512
16	0x3cfcc2c0	0.030854583
17	0xbd438568	-0.047734648
18	0xbc399585	-0.011327152
19	0x3c98fb9e	0.018674668
20	0x3d12fa0c	0.035882995
21	0xbcfa6a49	-0.030568259
22	0x3c4d58c6	0.012533372
23	0x3ca53522	0.020166937
24	0xbd1f4dd3	-0.03889258
25	0xbd25668b	-0.040380996
26	0x3da2386e	0.07920919
27	0xbd9c340d	-0.076271154
28	0xbd898b59	-0.067160316
29	0x3ccf6c93	0.025320327
30	0x3bd65b28	0.0065416284
31	0x3cde38e8	0.027126744
32	0x3cdd579c	0.027019314
33	0x3c86f01e	0.016471919
34	0xbcc3b3b7	-0.023889406
35	0x3dbac76d	0.09120069
36	0x3dbcf813	0.09227004
37	0x3cdbba62	0.026822273
38	0xbc96318e	-0.018334176
39	0xbd6944cd	-0.05695038
40	0x3d5fa953	0.05460484
41	0xbca4066b	-0.020022592
42	0xbc973234	-0.018456556
43	0xbd12fb0e	-0.035883956
44	0x3d0e8e18	0.03480348
45	0x3c292215	0.010323067
46	0x3be8c0ea	0.0071030753
47	0x3d45e8d9	0.048317764
48	0x3d4896c4	0.048971906
49	0x3cec88e9	0.028873878
50	0xbd98adee	-0.074550495
51	0x3b9fe147	0.00487915
52	0x3b2b70f0	0.0026159845
53	0xbd76ca59	-0.060251568
54	0x3bc7c01f	0.0060959007
55	0x3c30f5b7	0.0108007705
56	0xbdbbb663	-0.09165647
57	0xbd0724ec	-0.032994196
58	0x3a910d06	0.0011066503
59	0x3cd6f574	0.026240088
60	0xbd4750fd	-0.04866122
61	0xbc7cfa1a	-0.015440488
62	0xbd5b9cf1	-0.053616468
63	0xbd633e6a	-0.055479445
64	0x3c4d8553	0.012543994
65	0xbda7df7d	-0.08196924
66	0xbc9a47d9	-0.018833088
67	0x3d499519	0.049214456
68	0x3c8affe5	0.016967723
69	0xbcd48165	-0.025940606
70	0x3bba0e27	0.0056779566
71	0xbc88ecc1	-0.016714456
72	0xbd3c371f	-0.045951005
73	0x3d1d51c3	0.038408052
74	0xbd2a4ddc	-0.04157816
75	0x3d53625e	0.051607482
76	0x3d492ec6	0.049116872
77	0xbd28ac6f	-0.04118007
78	0xbd8df87a	-0.06932159
79	0xba72caa5	-0.0009261764
80	0x3c984cb2	0.018591259
81	0x3d126e0e	0.035749488
82	0x3cdd9a37	0.027051074
83	0xbd118fa8	-0.035537392
84	0xbd2dcef6	-0.0424337
85	0xbb88e4b5	-0.0041776546
86	0x3d1bd8b6	0.03804847
87	0x3bfdc13c	0.0077439826
88	0xbd22ddbf	-0.039762255
89	0xbcb3c003	-0.021942144
90	0xbd97106b	-0.07376178
91	0x3d67692c	0.056496784
92	0xbd61ae9b	-0.055098157
93	0xbce41461	-0.027841749
94	0x3d022459	0.031772945
95	0x3cc29fff	0.023757933
96	0x3d85271a	0.06501599
97	0x3d5f1ffa	0.054473855
98	0x3cca3745	0.024684558
99	0x3bf4befa	0.0074690552
100	0x3d0fe1e8	0.03512755
101	0xbd8103ef	-0.062995784
102	0xbd73637f	-0.05942106
103	0x3bdd27ec	0.006749144
104	0x3d3a4d08	0.04548362
105	0x3c1037e2	0.008802386
106	0x3d3d4c1f	0.046215173
107	0x3b91baf1	0.004447334
108	0xbd339aaa	-0.04384867
109	0xbd6bd023	-0.05757154
110	0x3d136795	0.035987455
111	0x3baad5fd	0.0052134977
112	0x3cd36dbc	0.025809161
113	0xbc547d00	-0.012969255
114	0xbc0634a0	-0.008191258
115	0x3d5429d6	0.05179771
116	0x3d7a67b5	0.06113406
117	0xbd1d87c2	-0.038459547
118	0x3cf9c42f	0.030489055
119	0xbc1e5c18	-0.009665512
120	0xbcdc9ead	-0.026931131
121	0xbd4ca71c	-0.049964055
122	0xbd2f3a4a	-0.0427802
123	0xbd3e2fab	-0.04643218
124	0xbcb912bb	-0.02259194
125	0x3cc7423e	0.024323579
126	0xbd170f5d	-0.036879886
127	0xbd637047	-0.055526998
128	0x3d7c7428	0.061634213
129	0x3d6b07ee	0.05738061
130	0x3d7d2e1d	0.061811555
131	0xbc3729cd	-0.0111794
132	0x3d412ede	0.047163837
133	0x3c19b54e	0.009381605
134	0xbd4994ff	-0.04921436
135	0xbd1fbfd5	-0.039001305
136	0x3d809374	0.062781245
137	0xbd3df0e1	-0.0463723
138	0x3ca4e40f	0.020128278
139	0xbd50e929	-0.05100361
140	0x3cac22a5	0.021012614
141	0x3d5daf68	0.05412236
142	0x3cfc9f4c	0.030837677
143	0x3cfeaee6	0.031089257
144	0xbd344198	-0.044007868
145	0x3d5f31b1	0.05449075
146	0xbc7c568c	-0.015401494
147	0xbcba03bd	-0.02270686
148	0x3d1af2cc	0.037829205
149	0x3d58588d	0.052818824
150	0xbc9a3d16	-0.018827956
151	0xbdb6b039	-0.089203306
152	0xbd8d06f8	-0.06886095
153	0x3d4ae663	0.04953612
154	0x3d5ef4b6	0.054432593
155	0x3db23b78	0.08702749
156	0xbceec346	-0.029145848
157	0xbcc06856	-0.023487251
158	0x3c0cbf73	0.008590567
159	0xbd5a1e8d	-0.05325179
160	0x3da02c0b	0.078209005
161	0x3c1fbe4e	0.009749962
162	0xbcd5faec	-0.026120625
163	0x3d664091	0.05621392
164	0x3d2ae982	0.041726597
165	0xbce25f7b	-0.02763342
166	0x3c5aa0e4	0.013344023
167	0xbc84614a	-0.016159672
168	0x3cf843dc	0.030305795
169	0xbcbfd67b	-0.023417702
170	0x3d36caf9	0.044627164
171	0xbd4cb417	-0.049976435
172	0x3cabeb94	0.020986356
173	0x3bc67330	0.006056212
174	0xbd599f15	-0.053130228
175	0xbd117909	-0.03551582
176	0x3cff5893	0.031170165
177	0x3d3e67c8	0.046485692
178	0x3d82db50	0.06389487
179	0x3da5e0bb	0.080995046
180	0xbd4f4987	-0.05060723
181	0x3d36b49e	0.044605844
182	0xbd0418d4	-0.03225024
183	0x3d75b0dd	0.059983123
184	0x3d36a8ce	0.04459458
185	0xbce4f4fc	-0.027948849
186	0xbc8410bd	-0.016121263
187	0x3d6fc0a2	0.05853332
188	0xbcb01155	-0.02149264
189	0xbc9d4d24	-0.019201823
190	0xbbf0daa9	-0.007350285
191	0x3d95097c	0.072771996
192	0x3d91ed6b	0.07125362
193	0x3cb5190f	0.022106675
194	0xbc42cc78	-0.011889569
195	0x3cd4b8b7	0.025966985
196	0x3daf418c	0.08557424
197	0x3d5d23b9	0.053989146
198	0xbc4bc422	-0.012436898
199	0xbd9bc170	-0.07605255
200	0x3d884ede	0.06655668
201	0x3641f15f	2.8899738e-06
202	0xbd3681e3	-0.044557463
203	0xbd1182e5	-0.03552522
204	0xbd2f81f0	-0.042848527
205	0x3d3e2eec	0.046431467
206	0xbd000b51	-0.031260792
207	0x3d838b7a	0.064230874
208	0x3d57821b	0.052614313
209	0x3ccad9c8	0.02476205
210	0xbd3ef7eb	-0.04662315
211	0x3d5c0e56	0.05372461
212	0xbcd44f8d	-0.025916839
213	0xbb38f962	-0.0028224816
214	0x3d38ca80	0.045114994
215	0x3cdfb910	0.027309924
216	0xbcde99d5	-0.027172962
217	0xbd3ebd36	-0.046567164
218	0xbd0477cc	-0.03234081
219	0x3d712032	0.058868594
220	0xbd003cd7	-0.03130802
221	0xbd6e625a	-0.058199264
222	0xbd03345e	-0.032032363
223	0x3c7dd5cc	0.015492868
224	0xbc943bb5	-0.018094877
225	0xbd171972	-0.0368895
226	0x3be4728c	0.006971663
227	0x3beab1cb	0.007162308
228	0xbc9fbb5e	-0.019498523
229	0x3d00671d	0.031348336
230	0xbd152f00	-0.036421776
231	0x3c4844a7	0.012223399
232	0xbdac96ac	-0.08427176
233	0x3d014513	0.031560015
234	0x3dbd64f9	0.09247775
235	0xbdbe8273	-0.09302225
236	0xbb85409e	-0.004066541
237	0x3bb9384e	0.005652464
238	0x3d8ac772	0.067763224
239	0x3bef620a	0.0073053883
240	0xbd4fc400	-0.05072403
241	0xbbbed7c4	-0.005824061
242	0xbd4e9a25	-0.050439972
243	0xbca2dbf4	-0.019880272
244	0xbd8c307a	-0.06845184
245	0xbd1ed2c2	-0.038775213
246	0xbbeb2c93	-0.0071769445
247	0x3cdfda53	0.027325785
248	0xbb18580c	-0.002324584
249	0xbd9552bd	-0.07291172
250	0x3a164fdf	0.00057339476
251	0xbca1724e	-0.019707825
252	0x3d2b9ea6	0.041899346
253	0x3c77ee73	0.015132534
254	0xbd945829	-0.07243378
255	0x3d8b163e	0.06791352

arith.constant5 f4 [96, 3, 3, 64]
0	0x3c3342c3	0.01094121
1	0xbd474b3d	-0.048655737
2	0x3d8845b3	0.06653919
3	0x3d914975	0.07094089
4	0xbd751d4a	-0.059842385
5	0x3d02e41c	0.031955823
6	0x3d847836	0.06468241
7	0x3d996ed8	0.07491845
8	0x3d82b4e1	0.06382156
9	0xbd85dc5d	-0.065361716
10	0x3c43435f	0.011917918
11	0xbd59f36e	-0.05321067
12	0xbc73415a	-0.014847124
13	0x3cabe22c	0.02098187
14	0x3d36f903	0.04467107
15	0x3d8aec7d	0.06783388
16	0x3c6d0fac	0.0144690685
17	0x3c5957d3	0.013265568
18	0x3d103cae	0.03521412
19	0xbd9a56c1	-0.07536078
20	0xbcc85813	-0.02445606
21	0x3d9c01f2	0.076175585
22	0xbc473eab	-0.012160937
23	0x3cd4d54e	0.025980618
24	0xbd062103	-0.032746326
25	0xbc8c7710	-0.017146617
26	0x3ba3fb31	0.0050043096
27	0x3cd46b00	0.025929928
28	0xbd591c3c	-0.053005442
29	0x3cb10624	0.021609373
30	0x3c9cf85a	0.019161392
31	0xbd2474a4	-0.0401503
32	0xbd359489	-0.044331107
33	0x3d485e7d	0.048918236
34	0x3cb72f57	0.02236144
35	0x3bdabdae	0.0066754436
36	0x3d73d82a	0.059532322
37	0x3cc9aa06	0.024617206
38	0xbd39f0a4	-0.04539551
39	0x3c0a578e	0.008443726
40	0x3ce15be4	0.027509637
41	0xbce880e1	-0.028381767
42	0xbd083a0d	-0.033258487
43	0xbd304857	-0.04303774
44	0x3c5825b6	0.013192585
45	0x3c00cd2a	0.007861415
46	0x3d28eae6	0.04123964
47	0x3d09aac0	0.033610106
48	0x3d762d09	0.060101543
49	0xbd516523	-0.051121842
50	0xbd5351a1	-0.05159152
51	0x3d470fbc	0.04859899
52	0x3c6d8ac9	0.014498421
53	0x3d26eae6	0.04075136
54	0x3c01ffa3	0.007934484
55	0xbd257e24	-0.0404035
56	0xbbd6424a	-0.006538664
57	0xbcdc70df	-0.02690929
58	0x3d6fa93c	0.058511004
59	0x3cc8de5f	0.024520097
60	0x3cb8b299	0.0225461
61	0xbd579a3a	-0.052637316
62	0x3cec3996	0.028836053
63	0x3d345193	0.044023108
64	0x3d54692e	0.05185812
65	0x3c15abc2	0.009135189
66	0x3d83234f	0.06403219
67	0x3d1a4a3e	0.03766846
68	0xbd002efc	-0.031294808
69	0x3cd3eb8e	0.025869157
70	0x3c2a8497	0.010407588
71	0x3ccf6c7f	0.02532029
72	0xbd24cfab	-0.04023711
73	0x3d32a399	0.04361305
74	0xbd43c403	-0.047794353
75	0xbd7f4e97	-0.06233081
76	0xbce7cc52	-0.02829567
77	0x3d3ee956	0.046609245
78	0xbd1aa00b	-0.037750285
79	0xbcd1b276	-0.025597792
80	0x3d2d6f6a	0.04234258
81	0xbcd71081	-0.026252987
82	0xb8992582	-7.302595e-05
83	0x3bbb53ef	0.005716793
84	0x3d65935b	0.056048732
85	0x3c60b736	0.013715556
86	0xbcc957f0	-0.024578065
87	0xbbf86daa	-0.0075814323
88	0x3d0f59ff	0.034997936
89	0x3d5dd8a4	0.054161683
90	0xbd1ad373	-0.03779931
91	0x3c1a3508	0.009412058
92	0x3d0e909a	0.03480587
93	0xbd337f28	-0.043822438
94	0x3cd4b4e7	0.025965167
95	0x3c921f4d	0.017837191
96	0xbbf34664	-0.0074241627
97	0x3d9fbf7f	0.07800197
98	0x3d84aeb4	0.064786345
99	0xbd0cf815	-0.034416277
100	0xbce13f14	-0.027495898
101	0x3d649b9e	0.05581247
102	0x3d54e2b2	0.051974006
103	0x3cab8ece	0.020942118
104	0xbdc1b865	-0.094589986
105	0xbcea14d5	-0.028574387
106	0x3d248fba	0.04017613
107	0x3d1b7453	0.037952732
108	0xbc75bf04	-0.014999155
109	0xbda3b431	-0.07993353
110	0x3ce9f4dd	0.028559143
111	0x3d4c009d	0.049805272
112	0x3d1f3553	0.038869213
113	0x3d6c31ea	0.05766479
114	0xbc898d0d	-0.016790891
115	0x3c9cb63c	0.019129865
116	0xbd2b35c4	-0.04179932
117	0xbca54136	-0.020172697
118	0xbc19e053	-0.009391862
119	0xbc489484	-0.01224244
120	0x3c011ce3	0.007880422
121	0xbd63949d	-0.05556165
122	0xbc3f1205	-0.011662011
123	0xbccbd1aa	-0.024880249
124	0xbd746e81	-0.059675697
125	0x3cc6ec34	0.024282552
126	0xbd0ef20b	-0.0348988
127	0xbbad7a05	-0.005294087
128	0xbc028306	-0.007965809
129	0xbc73b3a2	-0.014874371
130	0x3d12402c	0.03570573
131	0x3cde1aed	0.027112449
132	0x3c81b03c	0.015831105
133	0x3c3bd2ff	0.01146388
134	0x3c1e4205	0.009659295
135	0x3d54ddc6	0.051969312
136	0x3dcf6c4c	0.10128078
137	0x3d1a209a	0.037628748
138	0x3cade003	0.021224981
139	0x3d7df06d	0.061996866
140	0xbcebeb67	-0.028798772
141	0x3d5b3767	0.053519633
142	0x3d76fe8d	0.060301352
143	0xbcf44491	-0.029817851
144	0xbd7dc31e	-0.061953656
145	0xbc9c1c35	-0.019056419
146	0xbaf0a322	-0.0018359164
147	0xbd590044	-0.05297877
148	0xbd4ba38a	-0.04971651
149	0x3c5d26f0	0.013498053
150	0xbcd96e4d	-0.026541853
151	0x3ceab9d5	0.028653065
152	0x3cd53d45	0.026030192
153	0xbd2d02c0	-0.04223895
154	0x3d41583c	0.047203287
155	0x3d9fe47a	0.0780725
156	0x3c0ed825	0.008718525
157	0x3c326ca4	0.01089016
158	0x3d2eb8e9	0.042656813
159	0x3cb229c3	0.02174843
160	0x3d674cd8	0.05646977
161	0x3b6535e9	0.003497476
162	0xbbef2954	-0.007298628
163	0xbc9b6e0a	-0.01897337
164	0x3bcc5572	0.006235772
165	0xbd4304c6	-0.047611974
166	0xbd063d66	-0.032773398
167	0xbbecdb67	-0.0072283032
168	0xbd12264a	-0.035681047
169	0xbc2f34ea	-0.010693768
170	0xbcbe945d	-0.023264105
171	0xbcdef0e4	-0.027214475
172	0xbb739931	-0.0037170167
173	0xbd8c29f0	-0.068439364
174	0x3bc5b9df	0.0060341205
175	0x3cfdae62	0.030966941
176	0x3b80751b	0.00392021
177	0x3c436abb	0.011927302
178	0x3dad2b92	0.08455576
179	0x3c370b7a	0.01117217
180	0xba79c043	-0.00095272454
181	0xbd97ba39	-0.07408566
182	0x38efce8d	0.00011434881
183	0xbcbe3b39	-0.023221599
184	0xbcb9ddf1	-0.022688838
185	0x3bf5a43e	0.007496386
186	0x3d798010	0.060913146
187	0x3c4ad13d	0.012378988
188	0xbd255368	-0.040362746
189	0x3d1069ef	0.035257276
190	0x3ca36a63	0.01994819
191	0x3d24b710	0.040213645
192	0x3a782873	0.00094664766
193	0x3c13973b	0.009008224
194	0x3d6cd528	0.05782047
195	0xbc82d0e3	-0.015968746
196	0xbd316031	-0.043304626
197	0x3c46341b	0.012097384
198	0xbcc76b2a	-0.024343092
199	0xbcc74180	-0.024323225
200	0x3b3f1cad	0.002916138
201	0xbdaa7ce8	-0.08324605
202	0x3cc67e0c	0.024230026
203	0x3d38e506	0.04514029
204	0x3cefeb62	0.029287044
205	0x3d4524df	0.048130866
206	0x3d80d54f	0.062906854
207	0x3d889c02	0.06670381
208	0x3cd1f5bb	0.025629869
209	0xbb961133	-0.004579687
210	0x3d2b830f	0.041873034
211	0xbda98f69	-0.082793064
212	0xbd2d999b	-0.042382818
213	0x3d30a5b7	0.043126788
214	0xbc4c9499	-0.0124866
215	0xbc2d3488	-0.010571606
216	0x3d7750a3	0.060379636
217	0x3d8d86d7	0.06910484
218	0x3d274ffd	0.040847767
219	0xbd82105e	-0.06350778
220	0x3d564038	0.052307338
221	0xbc00408b	-0.007827888
222	0x3d311045	0.043228406
223	0x3d2cf8df	0.04222953
224	0xbc6e2b6c	-0.01453672
225	0xbd5ff860	-0.05468023
226	0xbd48e98e	-0.04905086
227	0xbd264454	-0.040592507
228	0x3c14b4dc	0.009076323
229	0x3d195c4b	0.037441533
230	0xbd2e63f1	-0.04257578
231	0x3c8107c2	0.01575077
232	0xbd202826	-0.03910079
233	0xbcf8610e	-0.030319717
234	0xbcaa11f2	-0.02076051
235	0x3c9c1dad	0.01905712
236	0xbd539974	-0.051660016
237	0xbcf6b102	-0.0301137
238	0x3d5b0979	0.05347583
239	0x3cff41e4	0.031159349
240	0xbd24d709	-0.040244136
241	0x3d9f5c4e	0.077812776
242	0x3c68f260	0.014217943
243	0xbd04ce7f	-0.032423493
244	0xbd8e9b47	-0.069632106
245	0x3bf2715e	0.0073987683
246	0xbd7e8c8a	-0.062145747
247	0xbd2ae4dd	-0.041722167
248	0x3d7e51d0	0.06208974
249	0xbd78f581	-0.060781006
250	0xbd40539e	-0.046954744
251	0xbc21af6e	-0.009868486
252	0xbca11656	-0.01966397
253	0x3d259bd6	0.04043182
254	0x3d803645	0.06260351
255	0x3d0af157	0.033921566

arith.constant6 f4 [64, 3, 3, 64]
0	0xbd15e2ec	-0.036593363
1	0xbc85b1a1	-0.016320052
2	0xbd86abe3	-0.065757535
3	0x3d00be53	0.031431507
4	0x3da1ebe2	0.07906319
5	0x3d275847	0.040855672
6	0x3d224879	0.039619897
7	0x3d92acfd	0.07161901
8	0x3c46f943	0.01214439
9	0xbd7d0d16	-0.061780058
10	0x3cb2ff2a	0.021850187
11	0xbd82df6a	-0.06390269
12	0xbd7216b1	-0.05910367
13	0xbbb5930f	-0.0055412124
14	0xbd48a312	-0.04898364
15	0x3da1602f	0.07879674
16	0xbca9b80c	-0.020717643
17	0x3d7467d6	0.05966934
18	0x3d6ef194	0.058335856
19	0x3d0b1e15	0.033964235
20	0x3c68a9d0	0.014200643
21	0xbbe71af6	-0.0070527745
22	0x3d34d006	0.0441437
23	0x3d367038	0.044540614
24	0xbd14e1fc	-0.036348328
25	0xbd8694f9	-0.06571383
26	0x3da95575	0.08268253
27	0xbd637d6d	-0.055539537
28	0xbca28ad2	-0.019841585
29	0xbd80e5e7	-0.062938504
30	0x3d1225cd	0.03568058
31	0x39b200fd	0.00033951542
32	0x3c60ffb9	0.013732844
33	0x3d28fb47	0.04125526
34	0x3d119ad5	0.03554805
35	0xbc4c5276	-0.012470832
36	0xbd05d537	-0.03267404
37	0x3d2d0708	0.042243034
38	0x3b457482	0.0030129259
39	0x3d068296	0.03283938
40	0x3ce6fbe3	0.02819628
41	0xbcb8c0d6	-0.022552889
42	0x3d39d7b9	0.045371745
43	0x3ce81e69	0.028334813
44	0x3d813498	0.063088596
45	0x3ca16880	0.01970315
46	0x3c59c39d	0.013291267
47	0xbd82fef8	-0.06396288
48	0x3d066505	0.032811183
49	0x3d18ddc6	0.037320875
50	0xbc4aa428	-0.012368239
51	0xbcc06d68	-0.023489669
52	0x3cc1ad29	0.02364214
53	0x3b224370	0.0024759434
54	0xbd2c9a00	-0.042139053
55	0xbd41411a	-0.047181226
56	0x3cc46b47	0.023976935
57	0x3895b4b4	7.138532e-05
58	0xbcc1e09f	-0.023666678
59	0xbcaa54ca	-0.020792384
60	0xbd3b448f	-0.04571968
61	0xbbd317fb	-0.0064420677
62	0xbbe8711b	-0.0070935613
63	0xbcf441f6	-0.029816609
64	0xbd26c89a	-0.040718652
65	0x3d130840	0.03589654
66	0xbb4d7931	-0.0031352753
67	0x3c5f153e	0.013615904
68	0x3c58c8ac	0.013231438
69	0xbd24977a	-0.04018352
70	0xba3c7539	-0.00071890984
71	0x3d279446	0.04091289
72	0xbd995129	-0.07486183
73	0x3d614c7a	0.055004574
74	0xbd6941bd	-0.05694746
75	0xbd02538d	-0.03181796
76	0xbcb6a2db	-0.022294452
77	0xbd5bb9a9	-0.053643856
78	0xbd54f6bc	-0.051993117
79	0xbc1bc376	-0.009507051
80	0xbdad2c29	-0.084556885
81	0x3d250bd2	0.040294476
82	0xbcf4f0a6	-0.029899906
83	0xbcb91371	-0.022592278
84	0xbb32ec5b	-0.0027301523
85	0x3d7ae8ee	0.061257295
86	0xbd3b4ae7	-0.04572573
87	0xbc99ae62	-0.01875991
88	0x3c59a194	0.013283152
89	0xbd81b198	-0.063327014
90	0x3dad5a6a	0.08464511
91	0xbdbcdeca	-0.09222181
92	0x3c04b563	0.008099887
93	0x3cfbec84	0.030752428
94	0x3d959ccb	0.073052965
95	0x3d2934c0	0.041310072
96	0x3cfe6f1e	0.031058844
97	0xbd6b1402	-0.057392128
98	0x3d0bf9b5	0.034173686
99	0xbcc89285	-0.024483928
100	0xbcb32fc4	-0.021873362
101	0x3bc599a4	0.0060302783
102	0xbc80a9e2	-0.015706006
103	0x3d4e6919	0.050393198
104	0x3d3971d3	0.045274567
105	0x3d1ce47f	0.03830385
106	0x3c82b596	0.015955728
107	0xbc9b3790	-0.018947393
108	0x3cda3d48	0.02664055
109	0xbc884717	-0.01663546
110	0x3d2fb957	0.042901363
111	0xbd1e3210	-0.038621962
112	0x3c2198a7	0.009863055
113	0x3ceb6475	0.028734425
114	0x3c6c9e86	0.014442092
115	0xbd3106be	-0.04321932
116	0xbcb6921b	-0.022286465
117	0xbd5974df	-0.053089973
118	0x3d94fb5f	0.07274508
119	0x3d088f42	0.033339746
120	0xbd33ac3e	-0.043865435
121	0x3bebe400	0.0071988106
122	0x38841c11	6.299478e-05
123	0xbd30aa5d	-0.04313122
124	0x3cbd3456	0.023096245
125	0x3db70934	0.08937302
126	0xbc83c548	-0.016085282
127	0xbd3c5e3d	-0.04598831
128	0xbc8367d7	-0.016040726
129	0x3bdd5444	0.00675443
130	0x3c8d0535	0.017214397
131	0xbd4c3392	-0.04985387
132	0xbd1c3282	-0.038134106
133	0xbcd56e52	-0.026053581
134	0x3d8e7b61	0.069571264
135	0x3d67bcc9	0.056576524
136	0x3a5ff12b	0.0008542712
137	0xbbe4f8ca	-0.006987666
138	0xbd916355	-0.07099024
139	0xbd406835	-0.04697438
140	0xbd8b9e98	-0.06817359
141	0x3d287046	0.041122697
142	0xbd6f8d5a	-0.058484413
143	0xbd84f60a	-0.06492241
144	0xbd9bede5	-0.07613734
145	0xbc81fec3	-0.01586855
146	0xbd0cf659	-0.034414623
147	0x3d45221e	0.04812824
148	0x3cb35ecd	0.02189579
149	0xbca5a02d	-0.02021798
150	0x3b1d0feb	0.0023965787
151	0x3cdf3ff4	0.027252175
152	0xbd81a913	-0.063310765
153	0x3d8b62f0	0.0680598
154	0x3ca93cbe	0.020658847
155	0x3d5c5de5	0.053800482
156	0xbd762b50	-0.0600999
157	0xbd847c30	-0.064689994
158	0xbd448474	-0.04797788
159	0xbd03900e	-0.032119803
160	0x3d5070bf	0.050888773
161	0x3d998034	0.07495156
162	0x3d4b4530	0.04962653
163	0x3d7589d0	0.05994588
164	0x3d16755e	0.036733024
165	0x3d234f73	0.03987069
166	0x3d65902c	0.056045696
167	0x3cf91ce0	0.030409276
168	0x3c5e1099	0.013553762
169	0xbd5f2070	-0.054474294
170	0xbd360c64	-0.04444541
171	0x3d82879b	0.06373521
172	0x3aec61e3	0.0018034544
173	0xbd65fc33	-0.05614872
174	0x3cda71ab	0.02666553
175	0xbdb6a966	-0.08919029
176	0xbbf68721	-0.007523433
177	0x3daf265c	0.08552238
178	0x3d0a35cc	0.03374271
179	0x3d681e84	0.056669727
180	0xbd97d269	-0.074131794
181	0x3c58720b	0.013210784
182	0xbd083db3	-0.033261966
183	0x3d1bbd06	0.038022064
184	0x3d6d66ae	0.05795925
185	0x3c33f053	0.010982591
186	0x3d5dedc1	0.054181818
187	0x3d65d717	0.05611333
188	0xbd50c91d	-0.050973047
189	0x3d6fcfbd	0.058547724
190	0xbd6bfa27	-0.05761161
191	0xbcd36f11	-0.025809797
192	0x3d647235	0.05577298
193	0xbcff14f1	-0.031137915
194	0xbb960765	-0.004578518
195	0xbd0ea070	-0.034820974
196	0x3d216e00	0.039411545
197	0x3d39fddc	0.045408115
198	0xbda203f3	-0.079109095
199	0x3d93b221	0.0721171
200	0xbd945987	-0.072436385
201	0x3c980da0	0.018561184
202	0x3c64086a	0.013918022
203	0x3d1d6e57	0.038435306
204	0xbd91969a	-0.07108803
205	0x3d4c9933	0.04995079
206	0x3d37b10c	0.04484658
207	0xbcbd18f8	-0.023083195
208	0xbd1975b2	-0.03746576
209	0xbc4326d5	-0.011911114
210	0xbd6c485a	-0.057686187
211	0x3d83030c	0.063970655
212	0xbdbbece3	-0.09176042
213	0x3c652e5d	0.013988105
214	0xbd4c38e6	-0.04985895
215	0x3d315f53	0.0433038
216	0x3c165596	0.009175679
217	0xbda5c45f	-0.080940954
218	0xbc14bf10	-0.009078756
219	0xbb38ab8c	-0.0028178422
220	0x3d86db29	0.0658477
221	0xbd8994d0	-0.06717837
222	0x3c3ec61f	0.011643915
223	0x3ca76dc0	0.020438075
224	0xbc566808	-0.013086326
225	0xbd00b09a	-0.03141842
226	0xbb3da0b5	-0.00289349
227	0xbcce7007	-0.025199903
228	0x3d93d132	0.07217635
229	0xbcb8656e	-0.022509303
230	0x3d4cbe65	0.049986262
231	0xbd65d43a	-0.0561106
232	0xbd69e754	-0.057105377
233	0x3a66f24c	0.0008809909
234	0x3d0d060d	0.0344296
235	0x3d631f03	0.055449497
236	0x3d18989f	0.037254926
237	0x3d70f6ba	0.058829047
238	0xbca3635c	-0.01994484
239	0xbd1fe359	-0.039035175
240	0x3d7cddf3	0.061735105
241	0xbc9379ca	-0.01800241
242	0x3c7f5a84	0.015585545
243	0xbb1a17ad	-0.0023512647
244	0xbdb5b22a	-0.08871873
245	0xbc1d7d01	-0.009612323
246	0x3bdea444	0.0067944843
247	0xbd0c21e1	-0.034211997
248	0x3d75617b	0.059907418
249	0x3d727224	0.059190884
250	0x3cc701e4	0.024292894
251	0xbd3619e8	-0.0444583
252	0x3d488a83	0.04896022
253	0xbcbe5014	-0.023231544
254	0xbd2697bb	-0.040672045
255	0x3d45090d	0.048104335

arith.constant7 f4 [64, 3, 3, 32]
0	0x3cec2d7e	0.028830286
1	0x3c1659b3	0.009176659
2	0xbb38186c	-0.0028090728
3	0x3b95751a	0.0045610787
4	0x3d61ea7b	0.05515526
5	0xbd8f5309	-0.069982596
6	0x3d1a7a52	0.03771431
7	0xbba359a4	-0.004985051
8	0xbc52be9f	-0.01286283
9	0x3d9fd935	0.07805101
10	0x3d977702	0.07395746
11	0x3d1d2209	0.038362537
12	0x3d2ced5b	0.042218547
13	0xbd04a8b1	-0.03238744
14	0x3d783845	0.060600538
15	0xbd693eca	-0.056944646
16	0xbd6ee3fd	-0.058322895
17	0x39c78bdb	0.00038060438
18	0x3cad65b9	0.02116667
19	0xbd2d93b2	-0.04237718
20	0x3cfecbd8	0.03110306
21	0x3c1b10f8	0.009464495
22	0x3d03449d	0.032047857
23	0x3b7b82b8	0.0038377475
24	0xbd3562d0	-0.044283688
25	0x3d1568a2	0.03647674
26	0xbcce8fa3	-0.025214976
27	0x3cd1923b	0.025582423
28	0xbb9f7a3c	-0.0048668664
29	0x3ce37b4e	0.027768757
30	0x3d195b0b	0.03744034
31	0xbdc1dc00	-0.0946579
32	0x3cd32348	0.02577366
33	0xbd2b9211	-0.041887347
34	0xbc920c2b	-0.017828068
35	0x3d9cf177	0.07663243
36	0xbd4c14e8	-0.049824625
37	0xbdbe35bb	-0.09287592
38	0x3d973eef	0.073850505
39	0x3c929090	0.017891198
40	0xbdaca9b1	-0.084308036
41	0xbc559619	-0.013036274
42	0x3c8a8ec4	0.01691378
43	0xbc59883e	-0.013277112
44	0xb898548c	-7.263673e-05
45	0xbce18399	-0.027528571
46	0x3dafa6e6	0.08576755
47	0xbd97e387	-0.07416444
48	0xbd196416	-0.037448965
49	0x3a82b6c5	0.0009972682
50	0xbd14135e	-0.036151282
51	0xbd9f72b0	-0.07785547
52	0xbcf06341	-0.029344203
53	0x3da1450b	0.07874497
54	0xbdbd0184	-0.09228805
55	0x3b8eec96	0.0043616993
56	0xbd84924d	-0.06473217
57	0x3da93a26	0.08263044
58	0xbd4068de	-0.04697501
59	0x3ccf9c7a	0.025343169
60	0x3d43bb3d	0.047785986
61	0xbd2e5c1f	-0.042568322
62	0x3c8e4696	0.017367642
63	0x3d0b555a	0.034016944
64	0x3d0ed3d1	0.034869973
65	0x3dc56c29	0.096397705
66	0xbd98e0e1	-0.07464767
67	0x3d32f31b	0.043688875
68	0x3d8fb4f2	0.070169345
69	0x3d57281a	0.05252848
70	0xbcd41124	-0.02588708
71	0xbd84b11b	-0.06479093
72	0xbdabd392	-0.08389963
73	0x3d76b582	0.060231693
74	0xbd18355f	-0.037160274
75	0xbc6ef8ce	-0.014585687
76	0x3ddbe456	0.10736911
77	0xbd111095	-0.035416204
78	0x3db9b413	0.090675496
79	0x3dab186f	0.0835427
80	0x3d838d93	0.064234875
81	0x3d33d1d6	0.043901287
82	0x3c351028	0.011051215
83	0xb9849482	-0.0002528765
84	0x3bdcd20c	0.0067389067
85	0x3d7402ce	0.059572987
86	0xbda72bd9	-0.0816266
87	0x3c83861b	0.016055157
88	0x3d9305fb	0.07178875
89	0x3d437459	0.04771838
90	0x3d865464	0.06559065
91	0xbbe4789d	-0.006972386
92	0xbcfabab4	-0.030606605
93	0xbd777a62	-0.060419448
94	0xbd9e361b	-0.077251635
95	0xbd0dbe4a	-0.034605302
96	0xbd4f012f	-0.05053824
97	0xbd767659	-0.06017146
98	0xbce3303c	-0.02773296
99	0xbc06f092	-0.008236067
100	0x3bcf4188	0.0063249506
101	0xbd626ed7	-0.055281486
102	0x3db17d5e	0.0866649
103	0xbbfe93fe	-0.007769107
104	0x3c023f2a	0.00794963
105	0xbd73a021	-0.059478883
106	0xbbcfb018	-0.0063381307
107	0x3d16f1ea	0.0368518
108	0x3c9fba78	0.019498095
109	0xbd295fe8	-0.04135123
110	0xbd52d9e6	-0.051477335
111	0xbb908037	-0.0044098157
112	0xbdb7d371	-0.08975876
113	0x3d8cec69	0.06881029
114	0xbd26192a	-0.040551342
115	0x3d8b1bbd	0.067924
116	0x3cf62e54	0.030051388
117	0xbd925262	-0.071446195
118	0x3d51ae8b	0.051191848
119	0xbcde6710	-0.027148753
120	0xbd347c3f	-0.044063803
121	0x3d563c9b	0.05230389
122	0xbdaec6a4	-0.085339814
123	0xbc92d0b5	-0.017921785
124	0x3c241c09	0.01001645
125	0xbdb11ce3	-0.08648088
126	0xbd31597c	-0.04329823
127	0x3d6a91f1	0.057268087
128	0x3c80b1a5	0.015709708
129	0x3d15f8ec	0.036614344
130	0xbd984aae	-0.07436119
131	0xbd1117ed	-0.035423208
132	0x3d439c68	0.047756582
133	0x3d3bb140	0.045823336
134	0xbc798a06	-0.015230661
135	0xbda76219	-0.081730075
136	0xbd44ffbb	-0.048095446
137	0xbd200bd2	-0.039073773
138	0xbd5aa93c	-0.05338405
139	0x3d05e932	0.032693096
140	0x3ca0430f	0.019563226
141	0x3d0b2480	0.033970356
142	0xbceaee68	-0.028678134
143	0xbd806723	-0.06269672
144	0x3c9d90ab	0.019234022
145	0x3d5d68ce	0.054055028
146	0x3d91d0fa	0.07119937
147	0x3c9c86a5	0.019107172
148	0x3d8c9a9c	0.06865427
149	0xbd8094cc	-0.06278381
150	0xbd811a29	-0.06303818
151	0xbd3312f7	-0.04371926
152	0x3c8c4265	0.017121503
153	0xbcef697e	-0.029225107
154	0xbd601b0d	-0.054713298
155	0x3d79e2ae	0.061007194
156	0x3d6e9e2a	0.058256306
157	0x3d601100	0.054703712
158	0x3cf7b63f	0.030238269
159	0x3d88d92a	0.06682046
160	0x3d9f386b	0.07774433
161	0xbce7fcf7	-0.028318865
162	0xbced5784	-0.028972395
163	0xbdb89d6e	-0.09014402
164	0xbd75be71	-0.059996072
165	0xbd4bc0f8	-0.049744576
166	0x3d1fa887	0.03897908
167	0x3d0af967	0.033929255
168	0xbd33c8a0	-0.043892503
169	0xbd672c16	-0.056438528
170	0xbc32cc7c	-0.010913011
171	0xbd212b8a	-0.039348163
172	0x3ccf29db	0.025288513
173	0xbd80a090	-0.06280625
174	0xbca5523a	-0.02018081
175	0x3ba0fdd9	0.0049130735
176	0xbcc34189	-0.02383496
177	0x3d9f3537	0.07773822
178	0xbc685a5b	-0.014181699
179	0xbd863ef9	-0.0655498
180	0xbda1d9d2	-0.07902874
181	0x3bbbe93b	0.0057345903
182	0xbd85d664	-0.065350324
183	0xbc490ef9	-0.012271636
184	0x3d55179c	0.05202447
185	0xbd40297b	-0.04691456
186	0xbd943708	-0.07237059
187	0x3d2a9874	0.041649297
188	0xbc8d6ec0	-0.017264724
189	0x3d80033e	0.062506184
190	0xbcd5c1a8	-0.026093319
191	0x3d7f93f0	0.062396944
192	0xbd294b2c	-0.041331455
193	0xbd8eda4a	-0.06975229
194	0xbb85705a	-0.0040722312
195	0xbccd6dc0	-0.025076747
196	0xbc9293c2	-0.017892722
197	0xbd2efe4c	-0.042722985
198	0x3cc57d94	0.024107732
199	0x3d38ed46	0.045148157
200	0x3cca968d	0.024729991
201	0xbdace351	-0.08441795
202	0x3c7a9f2d	0.0152967395
203	0xbd853c38	-0.065056264
204	0x3d9b3f9e	0.075804934
205	0x3cc99802	0.024608616
206	0xbbaa35d3	-0.0051944046
207	0xbdab919b	-0.083773814
208	0x3ae0cfcf	0.0017151776
209	0x3d511b3f	0.051051375
210	0xbd6ec248	-0.05829075
211	0xba0ce2aa	-0.0005374352
212	0xbd828448	-0.06372887
213	0x3d2f5c0c	0.042812392
214	0xbd92fde8	-0.07177335
215	0xbd2778a0	-0.04088652
216	0x3c6e8242	0.014557423
217	0xbd06e775	-0.03293558
218	0xbce823df	-0.028337417
219	0xbbd5da2c	-0.0065262523
220	0x3ca09409	0.019601839
221	0xbdac2664	-0.0840576
222	0x3bf916de	0.007601603
223	0xbd44d106	-0.048050903
224	0x3cccdcb4	0.025007583
225	0x3db4ae8c	0.08822355
226	0x3d6d9941	0.058007482
227	0x3da5b522	0.08091189
228	0xbd064fbf	-0.032790896
229	0xbb62ff61	-0.003463708
230	0xbd87a0af	-0.06622445
231	0x3d835d3e	0.06414269
232	0xbc899ab7	-0.016797407
233	0xbca72db5	-0.020407537
234	0x3d915fce	0.070983514
235	0x3d051cfc	0.032498345
236	0x3d2b0c03	0.041759502
237	0x3d02fbe2	0.031978495
238	0xbcdf9fb3	-0.02729783
239	0xbda8a363	-0.082342885
240	0x3d38bdb1	0.04510278
241	0xbd74f6fe	-0.059805863
242	0x3d7ba4de	0.061436526
243	0xbb9689f7	-0.0045940834
244	0xbc3906b1	-0.011293099
245	0xbce1c673	-0.027560448
246	0xbd4f62d7	-0.05063137
247	0x3d256dca	0.040387906
248	0x396a5130	0.00022346224
249	0xbcc54963	-0.024082845
250	0xbd1a549f	-0.037678357
251	0xbdc5b631	-0.09653891
252	0xbd54490a	-0.051827468
253	0xbd843d7c	-0.0645704
254	0x3b2717f4	0.0025496455
255	0x3990308f	0.00027502

arith.constant8 f4 [6, 128]
0	0xbe2ebf36	-0.17065129
1	0x3d6d2451	0.057895962
2	0xbdc057cd	-0.09391747
3	0x3e001283	0.12507062
4	0xbd9c2c7f	-0.076256745
5	0xbdfb5fee	-0.122741565
6	0x3d67d54e	0.056599908
7	0x3e24e033	0.1610115
8	0x3e436efb	0.19085304
9	0x3e420bdc	0.18949836
10	0x3d36ba78	0.044611424
11	0x3c03e7c3	0.008050862
12	0x3e261481	0.16218759
13	0x3d66019d	0.056153882
14	0xbbccf4cf	-0.0062547694
15	0x3e1c7297	0.15278088
16	0xbe32ac32	-0.174485
17	0x3e79485e	0.24344012
18	0xbd88152e	-0.06644665
19	0x3e12f632	0.14351729
20	0xbe1c92fc	-0.15290445
21	0x3df98ac5	0.12184671
22	0xbca57883	-0.020199066
23	0xbd2e7b55	-0.042598087
24	0x3e58c117	0.21167408
25	0x3de94e5a	0.113918975
26	0x3e3fab13	0.18717603
27	0xbde86b5d	-0.11348603
28	0xbe5942b8	-0.21216857
29	0xbe07ed9d	-0.13274236
30	0x3e6f1224	0.23346764
31	0xbe5ac851	-0.21365477
32	0xbe4ce298	-0.20008314
33	0xbdf4f4e4	-0.11960772
34	0x3d7e84b2	0.062138267
35	0xbdee0cd2	-0.11623539
36	0xbc49b1dd	-0.012310472
37	0xbe6e7d31	-0.23289944
38	0x3e515433	0.20442276
39	0xbe43871d	-0.1909451
40	0xbddcc9b7	-0.107806616
41	0x3c11cc15	0.008898755
42	0x3d377111	0.044785563
43	0x3e6544d3	0.22389536
44	0xbdf3712c	-0.1188682
45	0xbd44a96f	-0.048013147
46	0xbb823baf	-0.0039744
47	0x3e6b6d39	0.22990884
48	0xbd1530e1	-0.036423568
49	0x3e1cdada	0.1531786
50	0xbb5039ec	-0.0031772805
51	0x3dab553c	0.083658665
52	0xbcb5a2af	-0.0221723
53	0xbe083d57	-0.1330465
54	0x3e15c44b	0.14625661
55	0x3e15db11	0.14634348
56	0x3d18bd32	0.037289806
57	0xbe2106fb	-0.15725319
58	0x3e324543	0.17409234
59	0xbda94c08	-0.08266455
60	0x3c5e56c6	0.013570493
61	0xbd99f496	-0.07517354
62	0xbe1f2848	-0.1554271
63	0x3e5e3526	0.21699962
64	0xbe574cf1	-0.21025445
65	0x3da1d5b2	0.07902087
66	0x3c48fc1c	0.012267139
67	0x3d84a016	0.064758465
68	0x3dd2bdf6	0.102901384
69	0xbd459b01	-0.048243526
70	0xbe09232a	-0.1339232
71	0x3e5f9128	0.21832716
72	0x3e587d30	0.21141505
73	0xbca7482a	-0.020420153
74	0x3dc2f640	0.09519625
75	0x3d1204a0	0.035648942
76	0x3e567d76	0.20946297
77	0xbd4a63b7	-0.0494115
78	0xbd714c8e	-0.0589109
79	0xbe571e01	-0.2100754
80	0xbd3c627e	-0.045992367
81	0x3e576221	0.21033527
82	0x3df6cfe8	0.12051374
83	0xbba1c565	-0.0049368613
84	0xbde80593	-0.11329188
85	0xbe22594f	-0.15854381
86	0x3e2565b6	0.16152081
87	0xbe346bd3	-0.17619257
88	0xbd1cf4e2	-0.038319476
89	0xbcc2435f	-0.023713766
90	0xbe232fb9	-0.15936173
91	0x3e2ab605	0.16670997
92	0x3d06249e	0.032749765
93	0xbde9c9fa	-0.11415477
94	0xbdf4ede4	-0.119594365
95	0xbd527797	-0.05138358
96	0x3ded970c	0.116010755
97	0xbe23cbb9	-0.15995683
98	0xbe5c1d85	-0.21495636
99	0x3e3daba8	0.18522513
100	0x3d98c8d4	0.0746018
101	0xbe40de32	-0.18834761
102	0xbd18de27	-0.037321236
103	0xbc7c8efd	-0.01541495
104	0xbddb29cd	-0.10701332
105	0xbd8a1a04	-0.06743243
106	0xbdb71cc7	-0.08941036
107	0x3e1bafd0	0.15203786
108	0xbe38cd8d	-0.18047161
109	0x3e1ff871	0.15622117
110	0x3dea4f5f	0.1144092
111	0xbe5be0ee	-0.21472523
112	0xbde5da4f	-0.1122328
113	0x3dfe2bc0	0.124106884
114	0x3cd5bc24	0.026090689
115	0x3e5004c1	0.20314313
116	0xbe468634	-0.19387132
117	0x3d9fd674	0.078045756
118	0xbd48557e	-0.048909657
119	0xbe627ebf	-0.22118662
120	0x3da11a30	0.07866323
121	0xbdedd6a6	-0.116132066
122	0x3d505896	0.050865732
123	0xbe2c35d4	-0.16817409
124	0xbe472541	-0.19447805
125	0xbd348752	-0.044074364
126	0xbe51febf	-0.20507334
127	0x3dc14570	0.09437072
128	0x3c1ab7ee	0.009443266
129	0x3e674e4c	0.22588462
130	0xbd48d0c9	-0.049027238
131	0xbdb1a0a2	-0.086732164
132	0xbe287522	-0.16450933
133	0xbdecf287	-0.11569696
134	0x3d82c0c9	0.06384427
135	0x3e33b5d4	0.1754983
136	0xbdd2e5d2	-0.10297741
137	0xbe4389e5	-0.19095571
138	0xbda1eee6	-0.079068944
139	0x3dcbb738	0.099470556
140	0x3d785e02	0.060636528
141	0xbd7902a0	-0.06079352
142	0x3e283c1a	0.16429177
143	0x3ca9486f	0.020664422
144	0x3e08e9b3	0.13370399
145	0x3d559c70	0.052151144
146	0x3d8938cc	0.06700286
147	0x3d827cab	0.06371435
148	0x3e10d8a0	0.14145136
149	0x3deac43a	0.114632085
150	0xbe300a1a	-0.17191353
151	0xbdc2876b	-0.09498485
152	0x3dd9f16e	0.10641752
153	0x3e4a2f4f	0.1974461
154	0xbe34985d	-0.17636247
155	0x3da7582c	0.08171114
156	0xbc9e6155	-0.01933352
157	0xbe234ad9	-0.15946521
158	0xbb98e636	-0.004666115
159	0x3d1ac772	0.037787862
160	0xbd3a66c4	-0.04550816
161	0xbdddff39	-0.108396955
162	0xbdaaeff4	-0.08346549
163	0xbe596751	-0.21230818
164	0x3d4d3d0a	0.05010704
165	0x3e14fb74	0.14549047
166	0x3c9bb761	0.01900834
167	0x3d552c4b	0.052044194
168	0x3da7f8f0	0.08201778
169	0xbe65aaa0	-0.2242837
170	0x3dfcea30	0.12349355
171	0xbdc7adc3	-0.09749939
172	0xbe428c2b	-0.18998782
173	0xbe2ad932	-0.16684416
174	0x3d2d3492	0.042286463
175	0x3da8ee17	0.08248537
176	0x3dceca4d	0.100971796
177	0x3d96b491	0.07358659
178	0x3e079878	0.13241756
179	0x3e168b80	0.14701653
180	0xbd32ee10	-0.043684065
181	0x3db83aec	0.089956135
182	0x3e235530	0.15950465
183	0xbd8d97a2	-0.06913687
184	0x3e372173	0.17883854
185	0x3e3da6c3	0.18520646
186	0x3e0e254a	0.13881412
187	0xbe3563f8	-0.17713916
188	0x3e011668	0.12606204
189	0x3df96fa2	0.121794954
190	0x3d69bfc5	0.05706765
191	0xbd46f648	-0.048574716
192	0xbd0f5bdf	-0.034999724
193	0xbc7f6f09	-0.015590438
194	0xbb945744	-0.0045270044
195	0xbe5455aa	-0.20735803
196	0x3e372bda	0.17887822
197	0x3e29abe6	0.1656948
198	0x3d8233a5	0.06357507
199	0x3d46b7cf	0.048515137
200	0xbdc62bfd	-0.09676359
201	0x3e241d1f	0.16026734
202	0x3e0149e4	0.12625843
203	0x3d3e1afc	0.046412453
204	0x3e0e8df0	0.13921332
205	0x3d16221d	0.036653627
206	0x3d39473d	0.045233954
207	0xbe0912f6	-0.1338614
208	0x3dbb17a6	0.0913537
209	0x3dfbb64c	0.1229063
210	0xbdfb1f08	-0.12261778
211	0x3e26bc39	0.16282739
212	0xbe22bc1f	-0.15892075
213	0xbd8b6f25	-0.068083085
214	0xbda218af	-0.07914864
215	0x3d295d04	0.041348472
216	0x3e1d5849	0.1536571
217	0x3cfe01d2	0.031006727
218	0x3e56496c	0.20926446
219	0xbe1e8e73	-0.15484028
220	0x3d1a016a	0.037599005
221	0x3e394c64	0.18095547
222	0xbe52193a	-0.20517436
223	0xbd64c435	-0.05585118
224	0xbe178ce1	-0.14799835
225	0xbde98824	-0.1140292
226	0xbddff11a	-0.10934658
227	0xbe659f19	-0.22423972
228	0xbdc2fe5b	-0.09521171
229	0xbd924a64	-0.07143095
230	0xbe531fa5	-0.2061754
231	0x3e30c919	0.17264213
232	0xbe5e9450	-0.21736264
233	0x3d96fde6	0.07372646
234	0xbdb5d4a4	-0.088784486
235	0x3d506547	0.050877836
236	0x3da6bc87	0.081414275
237	0x3dcd7fc1	0.10034133
238	0x3e1856ec	0.14876908
239	0xbb4eb7b5	-0.0031542603
240	0xbce14973	-0.027500844
241	0xbe625c69	-0.22105564
242	0xbd7df9c6	-0.06200578
243	0x3d859baa	0.06523831
244	0xbcb42d11	-0.021994146
245	0x3e3685ed	0.17824526
246	0x3e333a9c	0.17502826
247	0xbdf8beb5	-0.121457495
248	0x3db1d036	0.08682291
249	0xbe351e51	-0.17687346
250	0x3cae026b	0.021241387
251	0xbe505cdc	-0.20347923
252	0x3d1d20b8	0.03836128
253	0xbd12b5e0	-0.03581798
254	0xbe67b9c6	-0.2262946
255	0x3e5b5ade	0.21421382

arith.constant9 f4 [128, 800]
0	0x3cd95e8a	0.026534338
1	0x3d93815a	0.07202406
2	0xbd86ca5a	-0.06581564
3	0x3c4a9316	0.01236417
4	0x3c98d397	0.018655581
5	0x3d702f7f	0.058639046
6	0x3d18cc11	0.037303988
7	0x3d247d01	0.040158276
8	0x3d4ee7f1	0.050514165
9	0xbd7b7b2e	-0.06139677
10	0xbd49b6bd	-0.04924654
11	0x3d7f558d	0.062337447
12	0xbd54bc15	-0.05193718
13	0xbdd71659	-0.10502309
14	0xbd22c157	-0.039735164
15	0x3d4133f9	0.047168706
16	0x3c842da2	0.01613504
17	0xbca70aad	-0.020390833
18	0xbb3c4251	-0.002872605
19	0xbd6504bb	-0.055912714
20	0xbbb8ce59	-0.005639833
21	0x3d6bec6e	0.057598524
22	0x3d6d34c1	0.05791164
23	0xbd0df591	-0.03465802
24	0xbd401de1	-0.046903495
25	0x3d0513bf	0.032489534
26	0x3cae2302	0.021256927
27	0x3ceef5b0	0.029169887
28	0xbda71556	-0.081583664
29	0x3c05549f	0.008137851
30	0xbdafe7b1	-0.085891135
31	0x3c52bb76	0.012862077
32	0xbc305f73	-0.010764944
33	0xbd81b922	-0.063341394
34	0x3cb5e4b8	0.022203788
35	0x3ca991ea	0.02069946
36	0x3d75a03b	0.05996726
37	0x3cb92984	0.022602804
38	0xbc874dce	-0.016516592
39	0xbd4df789	-0.050284896
40	0xbdb3b610	-0.0877496
41	0xbd7426b7	-0.059607234
42	0xbdd99d61	-0.10625721
43	0x3d9950c3	0.07486107
44	0xbdb8c1d8	-0.09021348
45	0x3d362891	0.04447228
46	0x3da4d010	0.08047497
47	0x3d6ea3ed	0.0582618
48	0xbd44f997	-0.04808959
49	0xbd5debad	-0.054179836
50	0xbb987e70	-0.0046537444
51	0x3da9ea73	0.08296671
52	0xbaf420bd	-0.001862548
53	0x3d0c52db	0.034258705
54	0xbd27177c	-0.04079388
55	0x3c97ea40	0.018544316
56	0x3d92e8bf	0.07173299
57	0x3bb99efe	0.0056647053
58	0xbceaef26	-0.028678488
59	0xbc5f77b1	-0.0136393765
60	0xbdbabbea	-0.09117873
61	0x3d418024	0.047241345
62	0x3b721989	0.003694149
63	0x3d6b66e9	0.05747119
64	0x3d81a801	0.06330872
65	0xbd63fb7e	-0.055659764
66	0x3d2054bd	0.039143313
67	0xbce6118e	-0.028084543
68	0xbd4e848b	-0.05041937
69	0x3c2c763b	0.010526235
70	0xbd991260	-0.07474208
71	0xbd1347fb	-0.035957318
72	0xbbe9e3d9	-0.0071377573
73	0xbd6d7b79	-0.05797908
74	0xbd8554c6	-0.0651031
75	0xbb350df5	-0.0027626727
76	0xbd8d29e0	-0.06892753
77	0x3d91fe0a	0.07128532
78	0xbca77a2a	-0.020443995
79	0x3c6eead2	0.014582353
80	0xbc638bf7	-0.013888351
81	0xbcace0b4	-0.02110324
82	0xb9025f58	-0.00012433284
83	0xbc991a73	-0.01868937
84	0x3d864233	0.06555595
85	0x3da080bd	0.07837055
86	0xbd3bb1c4	-0.045823827
87	0xbd029ba8	-0.031886727
88	0x3cccb33d	0.024987811
89	0xbd79a870	-0.06095165
90	0xbcc73900	-0.024319172
91	0x3d56aa9e	0.052408807
92	0xbd80ac4c	-0.06282863
93	0xbd66e921	-0.056374673
94	0xbd4344ab	-0.04767291
95	0xbd969fae	-0.07354675
96	0x3cfb9b6f	0.030713765
97	0x3c338d84	0.010959033
98	0xbd410b5b	-0.04712997
99	0x3da407f9	0.08009333
100	0x3d7a9bbc	0.061183676
101	0x3cbdbf7e	0.0231626
102	0xbdad1f56	-0.084532425
103	0xbd7eba1d	-0.06218921
104	0xbd02003b	-0.0317385
105	0xbcd8a705	-0.026446829
106	0x3d7be428	0.061496884
107	0x3cfd697d	0.03093409
108	0x3cebbcab	0.028776487
109	0xbcb702c9	-0.022340195
110	0x3c008a15	0.007845421
111	0x3d20842e	0.039188556
112	0x3c1d616f	0.0096057495
113	0xbd7d5986	-0.061852954
114	0x3db6d65c	0.089276046
115	0x3d700d33	0.058606338
116	0x3d06c415	0.032901842
117	0x3d55474f	0.05206996
118	0xbd28a055	-0.04116853
119	0xbd7facd5	-0.062420685
120	0x3b4ec93d	0.0031553053
121	0xbd5bbf99	-0.05364952
122	0x3c12970e	0.008947147
123	0x3ba4940f	0.005022533
124	0x3c251284	0.010075215
125	0xbd95c2d5	-0.07312552
126	0xbda54c53	-0.08071198
127	0x3c97209c	0.018448167
128	0xbd5a3e2f	-0.05328196
129	0x3ddbb886	0.107285544
130	0xbcc003e0	-0.023439348
131	0x3c3c9d19	0.011512064
132	0xbc7d1376	-0.015446534
133	0x3d862880	0.065506935
134	0x3d653b25	0.055964608
135	0xbcc40820	-0.023929656
136	0xbb69d70d	-0.0035681159
137	0xbd79775a	-0.06090484
138	0x3d40c2a0	0.04706061
139	0x3d96d0c0	0.07364035
140	0xbd08ed35	-0.033429343
141	0x3d7a30c9	0.06108168
142	0xbcbafeff	-0.02282667
143	0x3d4d2140	0.050080538
144	0xbd0cdf29	-0.03439251
145	0x3be62ad7	0.00702415
146	0xbd652a15	-0.055948336
147	0x3afbcccc	0.0019210814
148	0x3af75107	0.0018868753
149	0xbd16833c	-0.03674625
150	0xbcedfcc2	-0.029051188
151	0x3b1483a2	0.0022661467
152	0x3c5b2211	0.013374821
153	0x3de16de4	0.11007288
154	0x3d9efa58	0.07762593
155	0xbde160df	-0.11004805
156	0x3d197e44	0.037473932
157	0xbcfc29e3	-0.030781692
158	0xbd8f560c	-0.06998834
159	0xbd29c24d	-0.041445065
160	0xbcd00e7d	-0.025397534
161	0xbc00348a	-0.007825026
162	0x3b2ab813	0.0026049658
163	0xbd876836	-0.066116735
164	0x3da59e8e	0.080868825
165	0xbc9ee17a	-0.019394625
166	0x3c9267e7	0.01787181
167	0xbc11e0a9	-0.008903661
168	0xbdbc3d16	-0.09191339
169	0xbcce5562	-0.025187198
170	0x3d25c1f5	0.040468175
171	0x3d072641	0.032995466
172	0x3b4e07f3	0.0031437844
173	0xbd901715	-0.070356525
174	0x3daef12f	0.08542096
175	0xbd61aa96	-0.055094324
176	0x3a9b5785	0.0011851644
177	0x3d205964	0.03914775
178	0x3d97fe7b	0.07421585
179	0xbc0b3319	-0.008496069
180	0xbd6f0327	-0.058352616
181	0x3d8c362e	0.068462715
182	0x3cd2aae4	0.025716253
183	0xbc890dd9	-0.016730236
184	0x3ccc31cd	0.02492609
185	0xbce4548c	-0.027872346
186	0x3db50871	0.08839501
187	0xbdb1be3a	-0.08678861
188	0x3d57c646	0.052679323
189	0x3b096229	0.002096305
190	0xbc243361	-0.010022015
191	0xbc97651a	-0.018480826
192	0x3d2e0724	0.04248728
193	0x3cd9b18d	0.02657392
194	0xbd9f5942	-0.077806965
195	0xbd79b1bd	-0.06096052
196	0xbd09e786	-0.033668064
197	0x3b39b4f5	0.0028336619
198	0xbd7858ec	-0.060631678
199	0x3cf1131f	0.029428063
200	0x3cde09b0	0.027104229
201	0x3d1d05e7	0.038335707
202	0xbda87cf7	-0.0822696
203	0x3cce560a	0.025187511
204	0xbbe9efbc	-0.0071391743
205	0x3d357516	0.044301115
206	0xbd6f4972	-0.058419652
207	0x3d574862	0.052559264
208	0x3c4227bb	0.011850293
209	0x3c1921f4	0.009346474
210	0x3b30a93f	0.0026956347
211	0x3bd8b74a	0.0066136466
212	0x3d82cc0e	0.063865766
213	0x3c9b279c	0.018939786
214	0xbb47dceb	-0.0030496668
215	0x3cac9faf	0.021072237
216	0xbccd9470	-0.025095195
217	0x3ce0f1ff	0.027459143
218	0x3d7b30a2	0.061325677
219	0x3d36f361	0.044665698
220	0x3d44aef0	0.048018396
221	0x3d83d966	0.0643795
222	0x3d5d3174	0.05400224
223	0x3d6d5632	0.05794353
224	0x3d8d6568	0.06904107
225	0xbcd17e44	-0.025572903
226	0xbd9ac192	-0.07556452
227	0x3d59f992	0.053216524
228	0xbd0d4547	-0.034489896
229	0xbd28d2e2	-0.04121674
230	0xbd100793	-0.035163473
231	0x3d6e42e0	0.058169246
232	0x3cd9c6b9	0.026584016
233	0x3c4fcbf3	0.012682903
234	0x3bd24fa5	0.006418186
235	0x3bbde4f5	0.005795116
236	0x39114773	0.00013854894
237	0x3d095f10	0.033537924
238	0x3d40b299	0.047045324
239	0x3d94e99a	0.072711185
240	0x3d316af2	0.04331488
241	0xbc14d35e	-0.009083597
242	0xbc71034d	-0.01471026
243	0xbbee7367	-0.0072769406
244	0x3cb1a965	0.021687219
245	0x3cc716b4	0.024302818
246	0xbc9ba5cd	-0.018999958
247	0xbd1d58e5	-0.038414855
248	0x3c621423	0.013798746
249	0xbd08394e	-0.033257775
250	0x3d589a47	0.052881505
251	0xbb93b993	-0.004508206
252	0xbc857ee7	-0.016295863
253	0x3c115135	0.008869459
254	0xbd5f2e92	-0.054487772
255	0x3d9f1a2b	0.07768663

arith.constant10 f4 [6]
0	0x3c1929e7	0.009348369
1	0xbcbf750a	-0.023371238
2	0xbb87fb93	-0.004149863
3	0x3c7c4d9e	0.015399365
4	0x3be5da64	0.0070145596
5	0xbc63b7e8	-0.013898827
